…
_20211020-164027', print_freq=1000, pruning_threshold=1e-06, rank=0, run_id='resnet50_None_lr_0.1_momentum_0.9_wd_0.0001_20211020-164027', seed=None, start_epoch=0, weight_decay=0.0001, workers=4, world_size=1)
Use GPU: 0 for training
=> creating model 'resnet50'
Warning: module Bottleneck is treated as a zero-op.
Warning: module ResNet is treated as a zero-op.
Warning: module DistributedDataParallel is treated as a zero-op.
DistributedDataParallel(
  25.557 M, 100.000% Params, 4.122 GMac, 100.000% MACs, 
  (module): ResNet(
    25.557 M, 100.000% Params, 4.122 GMac, 100.000% MACs, 
    (conv1): Conv2d(0.009 M, 0.037% Params, 0.118 GMac, 2.863% MACs, 3, 64, kernel_size=(7, 7), stride=(2, 2), padding=(3, 3), bias=False)
    (bn1): BatchNorm2d(0.0 M, 0.001% Params, 0.002 GMac, 0.039% MACs, 64, eps=1e-05, momentum=0.1, affine=True, track_running_stats=True)
    (relu): ReLU(0.0 M, 0.000% Params, 0.001 GMac, 0.019% MACs, inplace=True)
    (maxpool): MaxPool2d(0.0 M, 0.000% Params, 0.001 GMac, 0.019% MACs, kernel_size=3, stride=2, padding=1, dilation=1, ceil_mode=False)
    (layer1): Sequential(
      0.216 M, 0.844% Params, 0.68 GMac, 16.507% MACs, 
      (0): Bottleneck(
        0.075 M, 0.293% Params, 0.236 GMac, 5.736% MACs, 
        (conv1): Conv2d(0.004 M, 0.016% Params, 0.013 GMac, 0.312% MACs, 64, 64, kernel_size=(1, 1), stride=(1, 1), bias=False)
        (bn1): BatchNorm2d(0.0 M, 0.001% Params, 0.0 GMac, 0.010% MACs, 64, eps=1e-05, momentum=0.1, affine=True, track_running_stats=True)
        (conv2): Conv2d(0.037 M, 0.144% Params, 0.116 GMac, 2.805% MACs, 64, 64, kernel_size=(3, 3), stride=(1, 1), padding=(1, 1), bias=False)
        (bn2): BatchNorm2d(0.0 M, 0.001% Params, 0.0 GMac, 0.010% MACs, 64, eps=1e-05, momentum=0.1, affine=True, track_running_stats=True)
        (conv3): Conv2d(0.016 M, 0.064% Params, 0.051 GMac, 1.247% MACs, 64, 256, kernel_size=(1, 1), stride=(1, 1), bias=False)
        (bn3): BatchNorm2d(0.001 M, 0.002% Params, 0.002 GMac, 0.039% MACs, 256, eps=1e-05, momentum=0.1, affine=True, track_running_stats=True)
        (relu): ReLU(0.0 M, 0.000% Params, 0.001 GMac, 0.029% MACs, inplace=True)
        (downsample): Sequential(
          0.017 M, 0.066% Params, 0.053 GMac, 1.285% MACs, 
          (0): Conv2d(0.016 M, 0.064% Params, 0.051 GMac, 1.247% MACs, 64, 256, kernel_size=(1, 1), stride=(1, 1), bias=False)
          (1): BatchNorm2d(0.001 M, 0.002% Params, 0.002 GMac, 0.039% MACs, 256, eps=1e-05, momentum=0.1, affine=True, track_running_stats=True)
        )
      )
      (1): Bottleneck(
        0.07 M, 0.275% Params, 0.222 GMac, 5.385% MACs, 
        (conv1): Conv2d(0.016 M, 0.064% Params, 0.051 GMac, 1.247% MACs, 256, 64, kernel_size=(1, 1), stride=(1, 1), bias=False)
        (bn1): BatchNorm2d(0.0 M, 0.001% Params, 0.0 GMac, 0.010% MACs, 64, eps=1e-05, momentum=0.1, affine=True, track_running_stats=True)
        (conv2): Conv2d(0.037 M, 0.144% Params, 0.116 GMac, 2.805% MACs, 64, 64, kernel_size=(3, 3), stride=(1, 1), padding=(1, 1), bias=False)
        (bn2): BatchNorm2d(0.0 M, 0.001% Params, 0.0 GMac, 0.010% MACs, 64, eps=1e-05, momentum=0.1, affine=True, track_running_stats=True)
        (conv3): Conv2d(0.016 M, 0.064% Params, 0.051 GMac, 1.247% MACs, 64, 256, kernel_size=(1, 1), stride=(1, 1), bias=False)
        (bn3): BatchNorm2d(0.001 M, 0.002% Params, 0.002 GMac, 0.039% MACs, 256, eps=1e-05, momentum=0.1, affine=True, track_running_stats=True)
        (relu): ReLU(0.0 M, 0.000% Params, 0.001 GMac, 0.029% MACs, inplace=True)
      )
      (2): Bottleneck(
        0.07 M, 0.275% Params, 0.222 GMac, 5.385% MACs, 
        (conv1): Conv2d(0.016 M, 0.064% Params, 0.051 GMac, 1.247% MACs, 256, 64, kernel_size=(1, 1), stride=(1, 1), bias=False)
        (bn1): BatchNorm2d(0.0 M, 0.001% Params, 0.0 GMac, 0.010% MACs, 64, eps=1e-05, momentum=0.1, affine=True, track_running_stats=True)
        (conv2): Conv2d(0.037 M, 0.144% Params, 0.116 GMac, 2.805% MACs, 64, 64, kernel_size=(3, 3), stride=(1, 1), padding=(1, 1), bias=False)
        (bn2): BatchNorm2d(0.0 M, 0.001% Params, 0.0 GMac, 0.010% MACs, 64, eps=1e-05, momentum=0.1, affine=True, track_running_stats=True)
        (conv3): Conv2d(0.016 M, 0.064% Params, 0.051 GMac, 1.247% MACs, 64, 256, kernel_size=(1, 1), stride=(1, 1), bias=False)
        (bn3): BatchNorm2d(0.001 M, 0.002% Params, 0.002 GMac, 0.039% MACs, 256, eps=1e-05, momentum=0.1, affine=True, track_running_stats=True)
        (relu): ReLU(0.0 M, 0.000% Params, 0.001 GMac, 0.029% MACs, inplace=True)
      )
    )
    (layer2): Sequential(
      1.22 M, 4.772% Params, 1.037 GMac, 25.147% MACs, 
      (0): Bottleneck(
        0.379 M, 1.484% Params, 0.376 GMac, 9.122% MACs, 
        (conv1): Conv2d(0.033 M, 0.128% Params, 0.103 GMac, 2.493% MACs, 256, 128, kernel_size=(1, 1), stride=(1, 1), bias=False)
        (bn1): BatchNorm2d(0.0 M, 0.001% Params, 0.001 GMac, 0.019% MACs, 128, eps=1e-05, momentum=0.1, affine=True, track_running_stats=True)
        (conv2): Conv2d(0.147 M, 0.577% Params, 0.116 GMac, 2.805% MACs, 128, 128, kernel_size=(3, 3), stride=(2, 2), padding=(1, 1), bias=False)
        (bn2): BatchNorm2d(0.0 M, 0.001% Params, 0.0 GMac, 0.005% MACs, 128, eps=1e-05, momentum=0.1, affine=True, track_running_stats=True)
        (conv3): Conv2d(0.066 M, 0.256% Params, 0.051 GMac, 1.247% MACs, 128, 512, kernel_size=(1, 1), stride=(1, 1), bias=False)
        (bn3): BatchNorm2d(0.001 M, 0.004% Params, 0.001 GMac, 0.019% MACs, 512, eps=1e-05, momentum=0.1, affine=True, track_running_stats=True)
        (relu): ReLU(0.0 M, 0.000% Params, 0.001 GMac, 0.022% MACs, inplace=True)
        (downsample): Sequential(
          0.132 M, 0.517% Params, 0.104 GMac, 2.512% MACs, 
          (0): Conv2d(0.131 M, 0.513% Params, 0.103 GMac, 2.493% MACs, 256, 512, kernel_size=(1, 1), stride=(2, 2), bias=False)
          (1): BatchNorm2d(0.001 M, 0.004% Params, 0.001 GMac, 0.019% MACs, 512, eps=1e-05, momentum=0.1, affine=True, track_running_stats=True)
        )
      )
      (1): Bottleneck(
        0.28 M, 1.096% Params, 0.22 GMac, 5.341% MACs, 
        (conv1): Conv2d(0.066 M, 0.256% Params, 0.051 GMac, 1.247% MACs, 512, 128, kernel_size=(1, 1), stride=(1, 1), bias=False)
        (bn1): BatchNorm2d(0.0 M, 0.001% Params, 0.0 GMac, 0.005% MACs, 128, eps=1e-05, momentum=0.1, affine=True, track_running_stats=True)
        (conv2): Conv2d(0.147 M, 0.577% Params, 0.116 GMac, 2.805% MACs, 128, 128, kernel_size=(3, 3), stride=(1, 1), padding=(1, 1), bias=False)
        (bn2): BatchNorm2d(0.0 M, 0.001% Params, 0.0 GMac, 0.005% MACs, 128, eps=1e-05, momentum=0.1, affine=True, track_running_stats=True)
        (conv3): Conv2d(0.066 M, 0.256% Params, 0.051 GMac, 1.247% MACs, 128, 512, kernel_size=(1, 1), stride=(1, 1), bias=False)
        (bn3): BatchNorm2d(0.001 M, 0.004% Params, 0.001 GMac, 0.019% MACs, 512, eps=1e-05, momentum=0.1, affine=True, track_running_stats=True)
        (relu): ReLU(0.0 M, 0.000% Params, 0.001 GMac, 0.015% MACs, inplace=True)
      )
      (2): Bottleneck(
        0.28 M, 1.096% Params, 0.22 GMac, 5.341% MACs, 
        (conv1): Conv2d(0.066 M, 0.256% Params, 0.051 GMac, 1.247% MACs, 512, 128, kernel_size=(1, 1), stride=(1, 1), bias=False)
        (bn1): BatchNorm2d(0.0 M, 0.001% Params, 0.0 GMac, 0.005% MACs, 128, eps=1e-05, momentum=0.1, affine=True, track_running_stats=True)
        (conv2): Conv2d(0.147 M, 0.577% Params, 0.116 GMac, 2.805% MACs, 128, 128, kernel_size=(3, 3), stride=(1, 1), padding=(1, 1), bias=False)
        (bn2): BatchNorm2d(0.0 M, 0.001% Params, 0.0 GMac, 0.005% MACs, 128, eps=1e-05, momentum=0.1, affine=True, track_running_stats=True)
        (conv3): Conv2d(0.066 M, 0.256% Params, 0.051 GMac, 1.247% MACs, 128, 512, kernel_size=(1, 1), stride=(1, 1), bias=False)
        (bn3): BatchNorm2d(0.001 M, 0.004% Params, 0.001 GMac, 0.019% MACs, 512, eps=1e-05, momentum=0.1, affine=True, track_running_stats=True)
        (relu): ReLU(0.0 M, 0.000% Params, 0.001 GMac, 0.015% MACs, inplace=True)
      )
      (3): Bottleneck(
        0.28 M, 1.096% Params, 0.22 GMac, 5.341% MACs, 
        (conv1): Conv2d(0.066 M, 0.256% Params, 0.051 GMac, 1.247% MACs, 512, 128, kernel_size=(1, 1), stride=(1, 1), bias=False)
        (bn1): BatchNorm2d(0.0 M, 0.001% Params, 0.0 GMac, 0.005% MACs, 128, eps=1e-05, momentum=0.1, affine=True, track_running_stats=True)
        (conv2): Conv2d(0.147 M, 0.577% Params, 0.116 GMac, 2.805% MACs, 128, 128, kernel_size=(3, 3), stride=(1, 1), padding=(1, 1), bias=False)
        (bn2): BatchNorm2d(0.0 M, 0.001% Params, 0.0 GMac, 0.005% MACs, 128, eps=1e-05, momentum=0.1, affine=True, track_running_stats=True)
        (conv3): Conv2d(0.066 M, 0.256% Params, 0.051 GMac, 1.247% MACs, 128, 512, kernel_size=(1, 1), stride=(1, 1), bias=False)
        (bn3): BatchNorm2d(0.001 M, 0.004% Params, 0.001 GMac, 0.019% MACs, 512, eps=1e-05, momentum=0.1, affine=True, track_running_stats=True)
        (relu): ReLU(0.0 M, 0.000% Params, 0.001 GMac, 0.015% MACs, inplace=True)
      )
    )
    (layer3): Sequential(
      7.098 M, 27.775% Params, 1.471 GMac, 35.678% MACs, 
      (0): Bottleneck(
        1.512 M, 5.918% Params, 0.374 GMac, 9.080% MACs, 
        (conv1): Conv2d(0.131 M, 0.513% Params, 0.103 GMac, 2.493% MACs, 512, 256, kernel_size=(1, 1), stride=(1, 1), bias=False)
        (bn1): BatchNorm2d(0.001 M, 0.002% Params, 0.0 GMac, 0.010% MACs, 256, eps=1e-05, momentum=0.1, affine=True, track_running_stats=True)
        (conv2): Conv2d(0.59 M, 2.308% Params, 0.116 GMac, 2.805% MACs, 256, 256, kernel_size=(3, 3), stride=(2, 2), padding=(1, 1), bias=False)
        (bn2): BatchNorm2d(0.001 M, 0.002% Params, 0.0 GMac, 0.002% MACs, 256, eps=1e-05, momentum=0.1, affine=True, track_running_stats=True)
        (conv3): Conv2d(0.262 M, 1.026% Params, 0.051 GMac, 1.247% MACs, 256, 1024, kernel_size=(1, 1), stride=(1, 1), bias=False)
        (bn3): BatchNorm2d(0.002 M, 0.008% Params, 0.0 GMac, 0.010% MACs, 1024, eps=1e-05, momentum=0.1, affine=True, track_running_stats=True)
        (relu): ReLU(0.0 M, 0.000% Params, 0.0 GMac, 0.011% MACs, inplace=True)
        (downsample): Sequential(
          0.526 M, 2.059% Params, 0.103 GMac, 2.503% MACs, 
          (0): Conv2d(0.524 M, 2.051% Params, 0.103 GMac, 2.493% MACs, 512, 1024, kernel_size=(1, 1), stride=(2, 2), bias=False)
          (1): BatchNorm2d(0.002 M, 0.008% Params, 0.0 GMac, 0.010% MACs, 1024, eps=1e-05, momentum=0.1, affine=True, track_running_stats=True)
        )
      )
      (1): Bottleneck(
        1.117 M, 4.371% Params, 0.219 GMac, 5.320% MACs, 
        (conv1): Conv2d(0.262 M, 1.026% Params, 0.051 GMac, 1.247% MACs, 1024, 256, kernel_size=(1, 1), stride=(1, 1), bias=False)
        (bn1): BatchNorm2d(0.001 M, 0.002% Params, 0.0 GMac, 0.002% MACs, 256, eps=1e-05, momentum=0.1, affine=True, track_running_stats=True)
        (conv2): Conv2d(0.59 M, 2.308% Params, 0.116 GMac, 2.805% MACs, 256, 256, kernel_size=(3, 3), stride=(1, 1), padding=(1, 1), bias=False)
        (bn2): BatchNorm2d(0.001 M, 0.002% Params, 0.0 GMac, 0.002% MACs, 256, eps=1e-05, momentum=0.1, affine=True, track_running_stats=True)
        (conv3): Conv2d(0.262 M, 1.026% Params, 0.051 GMac, 1.247% MACs, 256, 1024, kernel_size=(1, 1), stride=(1, 1), bias=False)
        (bn3): BatchNorm2d(0.002 M, 0.008% Params, 0.0 GMac, 0.010% MACs, 1024, eps=1e-05, momentum=0.1, affine=True, track_running_stats=True)
        (relu): ReLU(0.0 M, 0.000% Params, 0.0 GMac, 0.007% MACs, inplace=True)
      )
      (2): Bottleneck(
        1.117 M, 4.371% Params, 0.219 GMac, 5.320% MACs, 
        (conv1): Conv2d(0.262 M, 1.026% Params, 0.051 GMac, 1.247% MACs, 1024, 256, kernel_size=(1, 1), stride=(1, 1), bias=False)
        (bn1): BatchNorm2d(0.001 M, 0.002% Params, 0.0 GMac, 0.002% MACs, 256, eps=1e-05, momentum=0.1, affine=True, track_running_stats=True)
        (conv2): Conv2d(0.59 M, 2.308% Params, 0.116 GMac, 2.805% MACs, 256, 256, kernel_size=(3, 3), stride=(1, 1), padding=(1, 1), bias=False)
        (bn2): BatchNorm2d(0.001 M, 0.002% Params, 0.0 GMac, 0.002% MACs, 256, eps=1e-05, momentum=0.1, affine=True, track_running_stats=True)
        (conv3): Conv2d(0.262 M, 1.026% Params, 0.051 GMac, 1.247% MACs, 256, 1024, kernel_size=(1, 1), stride=(1, 1), bias=False)
        (bn3): BatchNorm2d(0.002 M, 0.008% Params, 0.0 GMac, 0.010% MACs, 1024, eps=1e-05, momentum=0.1, affine=True, track_running_stats=True)
        (relu): ReLU(0.0 M, 0.000% Params, 0.0 GMac, 0.007% MACs, inplace=True)
      )
      (3): Bottleneck(
        1.117 M, 4.371% Params, 0.219 GMac, 5.320% MACs, 
        (conv1): Conv2d(0.262 M, 1.026% Params, 0.051 GMac, 1.247% MACs, 1024, 256, kernel_size=(1, 1), stride=(1, 1), bias=False)
        (bn1): BatchNorm2d(0.001 M, 0.002% Params, 0.0 GMac, 0.002% MACs, 256, eps=1e-05, momentum=0.1, affine=True, track_running_stats=True)
        (conv2): Conv2d(0.59 M, 2.308% Params, 0.116 GMac, 2.805% MACs, 256, 256, kernel_size=(3, 3), stride=(1, 1), padding=(1, 1), bias=False)
        (bn2): BatchNorm2d(0.001 M, 0.002% Params, 0.0 GMac, 0.002% MACs, 256, eps=1e-05, momentum=0.1, affine=True, track_running_stats=True)
        (conv3): Conv2d(0.262 M, 1.026% Params, 0.051 GMac, 1.247% MACs, 256, 1024, kernel_size=(1, 1), stride=(1, 1), bias=False)
        (bn3): BatchNorm2d(0.002 M, 0.008% Params, 0.0 GMac, 0.010% MACs, 1024, eps=1e-05, momentum=0.1, affine=True, track_running_stats=True)
        (relu): ReLU(0.0 M, 0.000% Params, 0.0 GMac, 0.007% MACs, inplace=True)
      )
      (4): Bottleneck(
        1.117 M, 4.371% Params, 0.219 GMac, 5.320% MACs, 
        (conv1): Conv2d(0.262 M, 1.026% Params, 0.051 GMac, 1.247% MACs, 1024, 256, kernel_size=(1, 1), stride=(1, 1), bias=False)
        (bn1): BatchNorm2d(0.001 M, 0.002% Params, 0.0 GMac, 0.002% MACs, 256, eps=1e-05, momentum=0.1, affine=True, track_running_stats=True)
        (conv2): Conv2d(0.59 M, 2.308% Params, 0.116 GMac, 2.805% MACs, 256, 256, kernel_size=(3, 3), stride=(1, 1), padding=(1, 1), bias=False)
        (bn2): BatchNorm2d(0.001 M, 0.002% Params, 0.0 GMac, 0.002% MACs, 256, eps=1e-05, momentum=0.1, affine=True, track_running_stats=True)
        (conv3): Conv2d(0.262 M, 1.026% Params, 0.051 GMac, 1.247% MACs, 256, 1024, kernel_size=(1, 1), stride=(1, 1), bias=False)
        (bn3): BatchNorm2d(0.002 M, 0.008% Params, 0.0 GMac, 0.010% MACs, 1024, eps=1e-05, momentum=0.1, affine=True, track_running_stats=True)
        (relu): ReLU(0.0 M, 0.000% Params, 0.0 GMac, 0.007% MACs, inplace=True)
      )
      (5): Bottleneck(
        1.117 M, 4.371% Params, 0.219 GMac, 5.320% MACs, 
        (conv1): Conv2d(0.262 M, 1.026% Params, 0.051 GMac, 1.247% MACs, 1024, 256, kernel_size=(1, 1), stride=(1, 1), bias=False)
        (bn1): BatchNorm2d(0.001 M, 0.002% Params, 0.0 GMac, 0.002% MACs, 256, eps=1e-05, momentum=0.1, affine=True, track_running_stats=True)
        (conv2): Conv2d(0.59 M, 2.308% Params, 0.116 GMac, 2.805% MACs, 256, 256, kernel_size=(3, 3), stride=(1, 1), padding=(1, 1), bias=False)
        (bn2): BatchNorm2d(0.001 M, 0.002% Params, 0.0 GMac, 0.002% MACs, 256, eps=1e-05, momentum=0.1, affine=True, track_running_stats=True)
        (conv3): Conv2d(0.262 M, 1.026% Params, 0.051 GMac, 1.247% MACs, 256, 1024, kernel_size=(1, 1), stride=(1, 1), bias=False)
        (bn3): BatchNorm2d(0.002 M, 0.008% Params, 0.0 GMac, 0.010% MACs, 1024, eps=1e-05, momentum=0.1, affine=True, track_running_stats=True)
        (relu): ReLU(0.0 M, 0.000% Params, 0.0 GMac, 0.007% MACs, inplace=True)
      )
    )
    (layer4): Sequential(
      14.965 M, 58.554% Params, 0.811 GMac, 19.676% MACs, 
      (0): Bottleneck(
        6.04 M, 23.632% Params, 0.373 GMac, 9.059% MACs, 
        (conv1): Conv2d(0.524 M, 2.051% Params, 0.103 GMac, 2.493% MACs, 1024, 512, kernel_size=(1, 1), stride=(1, 1), bias=False)
        (bn1): BatchNorm2d(0.001 M, 0.004% Params, 0.0 GMac, 0.005% MACs, 512, eps=1e-05, momentum=0.1, affine=True, track_running_stats=True)
        (conv2): Conv2d(2.359 M, 9.231% Params, 0.116 GMac, 2.805% MACs, 512, 512, kernel_size=(3, 3), stride=(2, 2), padding=(1, 1), bias=False)
        (bn2): BatchNorm2d(0.001 M, 0.004% Params, 0.0 GMac, 0.001% MACs, 512, eps=1e-05, momentum=0.1, affine=True, track_running_stats=True)
        (conv3): Conv2d(1.049 M, 4.103% Params, 0.051 GMac, 1.247% MACs, 512, 2048, kernel_size=(1, 1), stride=(1, 1), bias=False)
        (bn3): BatchNorm2d(0.004 M, 0.016% Params, 0.0 GMac, 0.005% MACs, 2048, eps=1e-05, momentum=0.1, affine=True, track_running_stats=True)
        (relu): ReLU(0.0 M, 0.000% Params, 0.0 GMac, 0.005% MACs, inplace=True)
        (downsample): Sequential(
          2.101 M, 8.222% Params, 0.103 GMac, 2.498% MACs, 
          (0): Conv2d(2.097 M, 8.206% Params, 0.103 GMac, 2.493% MACs, 1024, 2048, kernel_size=(1, 1), stride=(2, 2), bias=False)
          (1): BatchNorm2d(0.004 M, 0.016% Params, 0.0 GMac, 0.005% MACs, 2048, eps=1e-05, momentum=0.1, affine=True, track_running_stats=True)
        )
      )
      (1): Bottleneck(
        4.463 M, 17.461% Params, 0.219 GMac, 5.309% MACs, 
        (conv1): Conv2d(1.049 M, 4.103% Params, 0.051 GMac, 1.247% MACs, 2048, 512, kernel_size=(1, 1), stride=(1, 1), bias=False)
        (bn1): BatchNorm2d(0.001 M, 0.004% Params, 0.0 GMac, 0.001% MACs, 512, eps=1e-05, momentum=0.1, affine=True, track_running_stats=True)
        (conv2): Conv2d(2.359 M, 9.231% Params, 0.116 GMac, 2.805% MACs, 512, 512, kernel_size=(3, 3), stride=(1, 1), padding=(1, 1), bias=False)
        (bn2): BatchNorm2d(0.001 M, 0.004% Params, 0.0 GMac, 0.001% MACs, 512, eps=1e-05, momentum=0.1, affine=True, track_running_stats=True)
        (conv3): Conv2d(1.049 M, 4.103% Params, 0.051 GMac, 1.247% MACs, 512, 2048, kernel_size=(1, 1), stride=(1, 1), bias=False)
        (bn3): BatchNorm2d(0.004 M, 0.016% Params, 0.0 GMac, 0.005% MACs, 2048, eps=1e-05, momentum=0.1, affine=True, track_running_stats=True)
        (relu): ReLU(0.0 M, 0.000% Params, 0.0 GMac, 0.004% MACs, inplace=True)
      )
      (2): Bottleneck(
        4.463 M, 17.461% Params, 0.219 GMac, 5.309% MACs, 
        (conv1): Conv2d(1.049 M, 4.103% Params, 0.051 GMac, 1.247% MACs, 2048, 512, kernel_size=(1, 1), stride=(1, 1), bias=False)
        (bn1): BatchNorm2d(0.001 M, 0.004% Params, 0.0 GMac, 0.001% MACs, 512, eps=1e-05, momentum=0.1, affine=True, track_running_stats=True)
        (conv2): Conv2d(2.359 M, 9.231% Params, 0.116 GMac, 2.805% MACs, 512, 512, kernel_size=(3, 3), stride=(1, 1), padding=(1, 1), bias=False)
        (bn2): BatchNorm2d(0.001 M, 0.004% Params, 0.0 GMac, 0.001% MACs, 512, eps=1e-05, momentum=0.1, affine=True, track_running_stats=True)
        (conv3): Conv2d(1.049 M, 4.103% Params, 0.051 GMac, 1.247% MACs, 512, 2048, kernel_size=(1, 1), stride=(1, 1), bias=False)
        (bn3): BatchNorm2d(0.004 M, 0.016% Params, 0.0 GMac, 0.005% MACs, 2048, eps=1e-05, momentum=0.1, affine=True, track_running_stats=True)
        (relu): ReLU(0.0 M, 0.000% Params, 0.0 GMac, 0.004% MACs, inplace=True)
      )
    )
    (avgpool): AvgPool2d(0.0 M, 0.000% Params, 0.0 GMac, 0.002% MACs, kernel_size=7, stride=1, padding=0)
    (fc): Linear(2.049 M, 8.017% Params, 0.002 GMac, 0.050% MACs, in_features=2048, out_features=1000, bias=True)
  )
)
2021-10-20 16:40:34 Computational complexity:       4.12 GMac
2021-10-20 16:40:34 Number of parameters:           25.56 M 
