…
PyTorch Version  : 1.4.0
cuDNN   Version  : 7603
CUDA available   : True
CUDA GPU numbers : 1
CUDA_VISIBLE_DEVICES : 0
./configs/archs/NAS-CIFAR-none.config
Configure(super_type='infer-nasnet.cifar', genotype=None, dataset='cifar', ichannel=33, layers=6, stem_multi=3, auxiliary=True, drop_path_prob=0.2, class_num=10)
./configs/opts/NAS-CIFAR.config
Configure(scheduler='cos', eta_min=0.0, epochs=595, warmup=5, optim='SGD', LR=0.025, decay=0.0005, momentum=0.9, nesterov=True, criterion='Softmax', auxiliary=0.4, class_num=10)
model ====>>>>:
NASNetonCIFAR(
  NASNetonCIFAR(C=33, N=6, L=18)
  (stem): Sequential(
    (0): Conv2d(3, 99, kernel_size=(3, 3), stride=(1, 1), padding=(1, 1), bias=False)
    (1): BatchNorm2d(99, eps=1e-05, momentum=0.1, affine=True, track_running_stats=True)
  )
  (cells): ModuleList(
    (0): NASNetInferCell(
      (preprocess0): ReLUConvBN(
        (op): Sequential(
          (0): ReLU()
          (1): Conv2d(99, 33, kernel_size=(1, 1), stride=(1, 1), bias=False)
          (2): BatchNorm2d(33, eps=1e-05, momentum=0.1, affine=True, track_running_stats=True)
        )
      )
      (preprocess1): ReLUConvBN(
        (op): Sequential(
          (0): ReLU()
          (1): Conv2d(99, 33, kernel_size=(1, 1), stride=(1, 1), bias=False)
          (2): BatchNorm2d(33, eps=1e-05, momentum=0.1, affine=True, track_running_stats=True)
        )
      )
      (edges): ModuleDict(
        (2<-0): DualSepConv(
          (op_a): SepConv(
            (op): Sequential(
              (0): ReLU()
              (1): Conv2d(33, 33, kernel_size=(3, 3), stride=(1, 1), padding=(1, 1), groups=33, bias=False)
              (2): Conv2d(33, 33, kernel_size=(1, 1), stride=(1, 1), bias=False)
              (3): BatchNorm2d(33, eps=1e-05, momentum=0.1, affine=True, track_running_stats=True)
            )
          )
          (op_b): SepConv(
            (op): Sequential(
              (0): ReLU()
              (1): Conv2d(33, 33, kernel_size=(3, 3), stride=(1, 1), padding=(1, 1), groups=33, bias=False)
              (2): Conv2d(33, 33, kernel_size=(1, 1), stride=(1, 1), bias=False)
              (3): BatchNorm2d(33, eps=1e-05, momentum=0.1, affine=True, track_running_stats=True)
            )
          )
        )
        (3<-0): DualSepConv(
          (op_a): SepConv(
            (op): Sequential(
              (0): ReLU()
              (1): Conv2d(33, 33, kernel_size=(3, 3), stride=(1, 1), padding=(1, 1), groups=33, bias=False)
              (2): Conv2d(33, 33, kernel_size=(1, 1), stride=(1, 1), bias=False)
              (3): BatchNorm2d(33, eps=1e-05, momentum=0.1, affine=True, track_running_stats=True)
            )
          )
          (op_b): SepConv(
            (op): Sequential(
              (0): ReLU()
              (1): Conv2d(33, 33, kernel_size=(3, 3), stride=(1, 1), padding=(1, 1), groups=33, bias=False)
              (2): Conv2d(33, 33, kernel_size=(1, 1), stride=(1, 1), bias=False)
              (3): BatchNorm2d(33, eps=1e-05, momentum=0.1, affine=True, track_running_stats=True)
            )
          )
        )
        (4<-1): POOLING(
          (op): MaxPool2d(kernel_size=3, stride=1, padding=1, dilation=1, ceil_mode=False)
        )
        (4<-0): DualSepConv(
          (op_a): SepConv(
            (op): Sequential(
              (0): ReLU()
              (1): Conv2d(33, 33, kernel_size=(5, 5), stride=(1, 1), padding=(2, 2), groups=33, bias=False)
              (2): Conv2d(33, 33, kernel_size=(1, 1), stride=(1, 1), bias=False)
              (3): BatchNorm2d(33, eps=1e-05, momentum=0.1, affine=True, track_running_stats=True)
            )
          )
          (op_b): SepConv(
            (op): Sequential(
              (0): ReLU()
              (1): Conv2d(33, 33, kernel_size=(5, 5), stride=(1, 1), padding=(2, 2), groups=33, bias=False)
              (2): Conv2d(33, 33, kernel_size=(1, 1), stride=(1, 1), bias=False)
              (3): BatchNorm2d(33, eps=1e-05, momentum=0.1, affine=True, track_running_stats=True)
            )
          )
        )
        (5<-0): DualSepConv(
          (op_a): SepConv(
            (op): Sequential(
              (0): ReLU()
              (1): Conv2d(33, 33, kernel_size=(5, 5), stride=(1, 1), padding=(2, 2), groups=33, bias=False)
              (2): Conv2d(33, 33, kernel_size=(1, 1), stride=(1, 1), bias=False)
              (3): BatchNorm2d(33, eps=1e-05, momentum=0.1, affine=True, track_running_stats=True)
            )
          )
          (op_b): SepConv(
            (op): Sequential(
              (0): ReLU()
              (1): Conv2d(33, 33, kernel_size=(5, 5), stride=(1, 1), padding=(2, 2), groups=33, bias=False)
              (2): Conv2d(33, 33, kernel_size=(1, 1), stride=(1, 1), bias=False)
              (3): BatchNorm2d(33, eps=1e-05, momentum=0.1, affine=True, track_running_stats=True)
            )
          )
        )
        (5<-1): POOLING(
          (op): MaxPool2d(kernel_size=3, stride=1, padding=1, dilation=1, ceil_mode=False)
        )
      )
    )
    (1): NASNetInferCell(
      (preprocess0): ReLUConvBN(
        (op): Sequential(
          (0): ReLU()
          (1): Conv2d(99, 33, kernel_size=(1, 1), stride=(1, 1), bias=False)
          (2): BatchNorm2d(33, eps=1e-05, momentum=0.1, affine=True, track_running_stats=True)
        )
      )
      (preprocess1): ReLUConvBN(
        (op): Sequential(
          (0): ReLU()
          (1): Conv2d(132, 33, kernel_size=(1, 1), stride=(1, 1), bias=False)
          (2): BatchNorm2d(33, eps=1e-05, momentum=0.1, affine=True, track_running_stats=True)
        )
      )
      (edges): ModuleDict(
        (2<-0): DualSepConv(
          (op_a): SepConv(
            (op): Sequential(
              (0): ReLU()
              (1): Conv2d(33, 33, kernel_size=(3, 3), stride=(1, 1), padding=(1, 1), groups=33, bias=False)
              (2): Conv2d(33, 33, kernel_size=(1, 1), stride=(1, 1), bias=False)
              (3): BatchNorm2d(33, eps=1e-05, momentum=0.1, affine=True, track_running_stats=True)
            )
          )
          (op_b): SepConv(
            (op): Sequential(
              (0): ReLU()
              (1): Conv2d(33, 33, kernel_size=(3, 3), stride=(1, 1), padding=(1, 1), groups=33, bias=False)
              (2): Conv2d(33, 33, kernel_size=(1, 1), stride=(1, 1), bias=False)
              (3): BatchNorm2d(33, eps=1e-05, momentum=0.1, affine=True, track_running_stats=True)
            )
          )
        )
        (3<-0): DualSepConv(
          (op_a): SepConv(
            (op): Sequential(
              (0): ReLU()
              (1): Conv2d(33, 33, kernel_size=(3, 3), stride=(1, 1), padding=(1, 1), groups=33, bias=False)
              (2): Conv2d(33, 33, kernel_size=(1, 1), stride=(1, 1), bias=False)
              (3): BatchNorm2d(33, eps=1e-05, momentum=0.1, affine=True, track_running_stats=True)
            )
          )
          (op_b): SepConv(
            (op): Sequential(
              (0): ReLU()
              (1): Conv2d(33, 33, kernel_size=(3, 3), stride=(1, 1), padding=(1, 1), groups=33, bias=False)
              (2): Conv2d(33, 33, kernel_size=(1, 1), stride=(1, 1), bias=False)
              (3): BatchNorm2d(33, eps=1e-05, momentum=0.1, affine=True, track_running_stats=True)
            )
          )
        )
        (4<-1): POOLING(
          (op): MaxPool2d(kernel_size=3, stride=1, padding=1, dilation=1, ceil_mode=False)
        )
        (4<-0): DualSepConv(
          (op_a): SepConv(
            (op): Sequential(
              (0): ReLU()
              (1): Conv2d(33, 33, kernel_size=(5, 5), stride=(1, 1), padding=(2, 2), groups=33, bias=False)
              (2): Conv2d(33, 33, kernel_size=(1, 1), stride=(1, 1), bias=False)
              (3): BatchNorm2d(33, eps=1e-05, momentum=0.1, affine=True, track_running_stats=True)
            )
          )
          (op_b): SepConv(
            (op): Sequential(
              (0): ReLU()
              (1): Conv2d(33, 33, kernel_size=(5, 5), stride=(1, 1), padding=(2, 2), groups=33, bias=False)
              (2): Conv2d(33, 33, kernel_size=(1, 1), stride=(1, 1), bias=False)
              (3): BatchNorm2d(33, eps=1e-05, momentum=0.1, affine=True, track_running_stats=True)
            )
          )
        )
        (5<-0): DualSepConv(
          (op_a): SepConv(
            (op): Sequential(
              (0): ReLU()
              (1): Conv2d(33, 33, kernel_size=(5, 5), stride=(1, 1), padding=(2, 2), groups=33, bias=False)
              (2): Conv2d(33, 33, kernel_size=(1, 1), stride=(1, 1), bias=False)
              (3): BatchNorm2d(33, eps=1e-05, momentum=0.1, affine=True, track_running_stats=True)
            )
          )
          (op_b): SepConv(
            (op): Sequential(
              (0): ReLU()
              (1): Conv2d(33, 33, kernel_size=(5, 5), stride=(1, 1), padding=(2, 2), groups=33, bias=False)
              (2): Conv2d(33, 33, kernel_size=(1, 1), stride=(1, 1), bias=False)
              (3): BatchNorm2d(33, eps=1e-05, momentum=0.1, affine=True, track_running_stats=True)
            )
          )
        )
        (5<-1): POOLING(
          (op): MaxPool2d(kernel_size=3, stride=1, padding=1, dilation=1, ceil_mode=False)
        )
      )
    )
    (2): NASNetInferCell(
      (preprocess0): ReLUConvBN(
        (op): Sequential(
          (0): ReLU()
          (1): Conv2d(132, 33, kernel_size=(1, 1), stride=(1, 1), bias=False)
          (2): BatchNorm2d(33, eps=1e-05, momentum=0.1, affine=True, track_running_stats=True)
        )
      )
      (preprocess1): ReLUConvBN(
        (op): Sequential(
          (0): ReLU()
          (1): Conv2d(132, 33, kernel_size=(1, 1), stride=(1, 1), bias=False)
          (2): BatchNorm2d(33, eps=1e-05, momentum=0.1, affine=True, track_running_stats=True)
        )
      )
      (edges): ModuleDict(
        (2<-0): DualSepConv(
          (op_a): SepConv(
            (op): Sequential(
              (0): ReLU()
              (1): Conv2d(33, 33, kernel_size=(3, 3), stride=(1, 1), padding=(1, 1), groups=33, bias=False)
              (2): Conv2d(33, 33, kernel_size=(1, 1), stride=(1, 1), bias=False)
              (3): BatchNorm2d(33, eps=1e-05, momentum=0.1, affine=True, track_running_stats=True)
            )
          )
          (op_b): SepConv(
            (op): Sequential(
              (0): ReLU()
              (1): Conv2d(33, 33, kernel_size=(3, 3), stride=(1, 1), padding=(1, 1), groups=33, bias=False)
              (2): Conv2d(33, 33, kernel_size=(1, 1), stride=(1, 1), bias=False)
              (3): BatchNorm2d(33, eps=1e-05, momentum=0.1, affine=True, track_running_stats=True)
            )
          )
        )
        (3<-0): DualSepConv(
          (op_a): SepConv(
            (op): Sequential(
              (0): ReLU()
              (1): Conv2d(33, 33, kernel_size=(3, 3), stride=(1, 1), padding=(1, 1), groups=33, bias=False)
              (2): Conv2d(33, 33, kernel_size=(1, 1), stride=(1, 1), bias=False)
              (3): BatchNorm2d(33, eps=1e-05, momentum=0.1, affine=True, track_running_stats=True)
            )
          )
          (op_b): SepConv(
            (op): Sequential(
              (0): ReLU()
              (1): Conv2d(33, 33, kernel_size=(3, 3), stride=(1, 1), padding=(1, 1), groups=33, bias=False)
              (2): Conv2d(33, 33, kernel_size=(1, 1), stride=(1, 1), bias=False)
              (3): BatchNorm2d(33, eps=1e-05, momentum=0.1, affine=True, track_running_stats=True)
            )
          )
        )
        (4<-1): POOLING(
          (op): MaxPool2d(kernel_size=3, stride=1, padding=1, dilation=1, ceil_mode=False)
        )
        (4<-0): DualSepConv(
          (op_a): SepConv(
            (op): Sequential(
              (0): ReLU()
              (1): Conv2d(33, 33, kernel_size=(5, 5), stride=(1, 1), padding=(2, 2), groups=33, bias=False)
              (2): Conv2d(33, 33, kernel_size=(1, 1), stride=(1, 1), bias=False)
              (3): BatchNorm2d(33, eps=1e-05, momentum=0.1, affine=True, track_running_stats=True)
            )
          )
          (op_b): SepConv(
            (op): Sequential(
              (0): ReLU()
              (1): Conv2d(33, 33, kernel_size=(5, 5), stride=(1, 1), padding=(2, 2), groups=33, bias=False)
              (2): Conv2d(33, 33, kernel_size=(1, 1), stride=(1, 1), bias=False)
              (3): BatchNorm2d(33, eps=1e-05, momentum=0.1, affine=True, track_running_stats=True)
            )
          )
        )
        (5<-0): DualSepConv(
          (op_a): SepConv(
            (op): Sequential(
              (0): ReLU()
              (1): Conv2d(33, 33, kernel_size=(5, 5), stride=(1, 1), padding=(2, 2), groups=33, bias=False)
              (2): Conv2d(33, 33, kernel_size=(1, 1), stride=(1, 1), bias=False)
              (3): BatchNorm2d(33, eps=1e-05, momentum=0.1, affine=True, track_running_stats=True)
            )
          )
          (op_b): SepConv(
            (op): Sequential(
              (0): ReLU()
              (1): Conv2d(33, 33, kernel_size=(5, 5), stride=(1, 1), padding=(2, 2), groups=33, bias=False)
              (2): Conv2d(33, 33, kernel_size=(1, 1), stride=(1, 1), bias=False)
              (3): BatchNorm2d(33, eps=1e-05, momentum=0.1, affine=True, track_running_stats=True)
            )
          )
        )
        (5<-1): POOLING(
          (op): MaxPool2d(kernel_size=3, stride=1, padding=1, dilation=1, ceil_mode=False)
        )
      )
    )
    (3): NASNetInferCell(
      (preprocess0): ReLUConvBN(
        (op): Sequential(
          (0): ReLU()
          (1): Conv2d(132, 33, kernel_size=(1, 1), stride=(1, 1), bias=False)
          (2): BatchNorm2d(33, eps=1e-05, momentum=0.1, affine=True, track_running_stats=True)
        )
      )
      (preprocess1): ReLUConvBN(
        (op): Sequential(
          (0): ReLU()
          (1): Conv2d(132, 33, kernel_size=(1, 1), stride=(1, 1), bias=False)
          (2): BatchNorm2d(33, eps=1e-05, momentum=0.1, affine=True, track_running_stats=True)
        )
      )
      (edges): ModuleDict(
        (2<-0): DualSepConv(
          (op_a): SepConv(
            (op): Sequential(
              (0): ReLU()
              (1): Conv2d(33, 33, kernel_size=(3, 3), stride=(1, 1), padding=(1, 1), groups=33, bias=False)
              (2): Conv2d(33, 33, kernel_size=(1, 1), stride=(1, 1), bias=False)
              (3): BatchNorm2d(33, eps=1e-05, momentum=0.1, affine=True, track_running_stats=True)
            )
          )
          (op_b): SepConv(
            (op): Sequential(
              (0): ReLU()
              (1): Conv2d(33, 33, kernel_size=(3, 3), stride=(1, 1), padding=(1, 1), groups=33, bias=False)
              (2): Conv2d(33, 33, kernel_size=(1, 1), stride=(1, 1), bias=False)
              (3): BatchNorm2d(33, eps=1e-05, momentum=0.1, affine=True, track_running_stats=True)
            )
          )
        )
        (3<-0): DualSepConv(
          (op_a): SepConv(
            (op): Sequential(
              (0): ReLU()
              (1): Conv2d(33, 33, kernel_size=(3, 3), stride=(1, 1), padding=(1, 1), groups=33, bias=False)
              (2): Conv2d(33, 33, kernel_size=(1, 1), stride=(1, 1), bias=False)
              (3): BatchNorm2d(33, eps=1e-05, momentum=0.1, affine=True, track_running_stats=True)
            )
          )
          (op_b): SepConv(
            (op): Sequential(
              (0): ReLU()
              (1): Conv2d(33, 33, kernel_size=(3, 3), stride=(1, 1), padding=(1, 1), groups=33, bias=False)
              (2): Conv2d(33, 33, kernel_size=(1, 1), stride=(1, 1), bias=False)
              (3): BatchNorm2d(33, eps=1e-05, momentum=0.1, affine=True, track_running_stats=True)
            )
          )
        )
        (4<-1): POOLING(
          (op): MaxPool2d(kernel_size=3, stride=1, padding=1, dilation=1, ceil_mode=False)
        )
        (4<-0): DualSepConv(
          (op_a): SepConv(
            (op): Sequential(
              (0): ReLU()
              (1): Conv2d(33, 33, kernel_size=(5, 5), stride=(1, 1), padding=(2, 2), groups=33, bias=False)
              (2): Conv2d(33, 33, kernel_size=(1, 1), stride=(1, 1), bias=False)
              (3): BatchNorm2d(33, eps=1e-05, momentum=0.1, affine=True, track_running_stats=True)
            )
          )
          (op_b): SepConv(
            (op): Sequential(
              (0): ReLU()
              (1): Conv2d(33, 33, kernel_size=(5, 5), stride=(1, 1), padding=(2, 2), groups=33, bias=False)
              (2): Conv2d(33, 33, kernel_size=(1, 1), stride=(1, 1), bias=False)
              (3): BatchNorm2d(33, eps=1e-05, momentum=0.1, affine=True, track_running_stats=True)
            )
          )
        )
        (5<-0): DualSepConv(
          (op_a): SepConv(
            (op): Sequential(
              (0): ReLU()
              (1): Conv2d(33, 33, kernel_size=(5, 5), stride=(1, 1), padding=(2, 2), groups=33, bias=False)
              (2): Conv2d(33, 33, kernel_size=(1, 1), stride=(1, 1), bias=False)
              (3): BatchNorm2d(33, eps=1e-05, momentum=0.1, affine=True, track_running_stats=True)
            )
          )
          (op_b): SepConv(
            (op): Sequential(
              (0): ReLU()
              (1): Conv2d(33, 33, kernel_size=(5, 5), stride=(1, 1), padding=(2, 2), groups=33, bias=False)
              (2): Conv2d(33, 33, kernel_size=(1, 1), stride=(1, 1), bias=False)
              (3): BatchNorm2d(33, eps=1e-05, momentum=0.1, affine=True, track_running_stats=True)
            )
          )
        )
        (5<-1): POOLING(
          (op): MaxPool2d(kernel_size=3, stride=1, padding=1, dilation=1, ceil_mode=False)
        )
      )
    )
    (4): NASNetInferCell(
      (preprocess0): ReLUConvBN(
        (op): Sequential(
          (0): ReLU()
          (1): Conv2d(132, 33, kernel_size=(1, 1), stride=(1, 1), bias=False)
          (2): BatchNorm2d(33, eps=1e-05, momentum=0.1, affine=True, track_running_stats=True)
        )
      )
      (preprocess1): ReLUConvBN(
        (op): Sequential(
          (0): ReLU()
          (1): Conv2d(132, 33, kernel_size=(1, 1), stride=(1, 1), bias=False)
          (2): BatchNorm2d(33, eps=1e-05, momentum=0.1, affine=True, track_running_stats=True)
        )
      )
      (edges): ModuleDict(
        (2<-0): DualSepConv(
          (op_a): SepConv(
            (op): Sequential(
              (0): ReLU()
              (1): Conv2d(33, 33, kernel_size=(3, 3), stride=(1, 1), padding=(1, 1), groups=33, bias=False)
              (2): Conv2d(33, 33, kernel_size=(1, 1), stride=(1, 1), bias=False)
              (3): BatchNorm2d(33, eps=1e-05, momentum=0.1, affine=True, track_running_stats=True)
            )
          )
          (op_b): SepConv(
            (op): Sequential(
              (0): ReLU()
              (1): Conv2d(33, 33, kernel_size=(3, 3), stride=(1, 1), padding=(1, 1), groups=33, bias=False)
              (2): Conv2d(33, 33, kernel_size=(1, 1), stride=(1, 1), bias=False)
              (3): BatchNorm2d(33, eps=1e-05, momentum=0.1, affine=True, track_running_stats=True)
            )
          )
        )
        (3<-0): DualSepConv(
          (op_a): SepConv(
            (op): Sequential(
              (0): ReLU()
              (1): Conv2d(33, 33, kernel_size=(3, 3), stride=(1, 1), padding=(1, 1), groups=33, bias=False)
              (2): Conv2d(33, 33, kernel_size=(1, 1), stride=(1, 1), bias=False)
              (3): BatchNorm2d(33, eps=1e-05, momentum=0.1, affine=True, track_running_stats=True)
            )
          )
          (op_b): SepConv(
            (op): Sequential(
              (0): ReLU()
              (1): Conv2d(33, 33, kernel_size=(3, 3), stride=(1, 1), padding=(1, 1), groups=33, bias=False)
              (2): Conv2d(33, 33, kernel_size=(1, 1), stride=(1, 1), bias=False)
              (3): BatchNorm2d(33, eps=1e-05, momentum=0.1, affine=True, track_running_stats=True)
            )
          )
        )
        (4<-1): POOLING(
          (op): MaxPool2d(kernel_size=3, stride=1, padding=1, dilation=1, ceil_mode=False)
        )
        (4<-0): DualSepConv(
          (op_a): SepConv(
            (op): Sequential(
              (0): ReLU()
              (1): Conv2d(33, 33, kernel_size=(5, 5), stride=(1, 1), padding=(2, 2), groups=33, bias=False)
              (2): Conv2d(33, 33, kernel_size=(1, 1), stride=(1, 1), bias=False)
              (3): BatchNorm2d(33, eps=1e-05, momentum=0.1, affine=True, track_running_stats=True)
            )
          )
          (op_b): SepConv(
            (op): Sequential(
              (0): ReLU()
              (1): Conv2d(33, 33, kernel_size=(5, 5), stride=(1, 1), padding=(2, 2), groups=33, bias=False)
              (2): Conv2d(33, 33, kernel_size=(1, 1), stride=(1, 1), bias=False)
              (3): BatchNorm2d(33, eps=1e-05, momentum=0.1, affine=True, track_running_stats=True)
            )
          )
        )
        (5<-0): DualSepConv(
          (op_a): SepConv(
            (op): Sequential(
              (0): ReLU()
              (1): Conv2d(33, 33, kernel_size=(5, 5), stride=(1, 1), padding=(2, 2), groups=33, bias=False)
              (2): Conv2d(33, 33, kernel_size=(1, 1), stride=(1, 1), bias=False)
              (3): BatchNorm2d(33, eps=1e-05, momentum=0.1, affine=True, track_running_stats=True)
            )
          )
          (op_b): SepConv(
            (op): Sequential(
              (0): ReLU()
              (1): Conv2d(33, 33, kernel_size=(5, 5), stride=(1, 1), padding=(2, 2), groups=33, bias=False)
              (2): Conv2d(33, 33, kernel_size=(1, 1), stride=(1, 1), bias=False)
              (3): BatchNorm2d(33, eps=1e-05, momentum=0.1, affine=True, track_running_stats=True)
            )
          )
        )
        (5<-1): POOLING(
          (op): MaxPool2d(kernel_size=3, stride=1, padding=1, dilation=1, ceil_mode=False)
        )
      )
    )
    (5): NASNetInferCell(
      (preprocess0): ReLUConvBN(
        (op): Sequential(
          (0): ReLU()
          (1): Conv2d(132, 33, kernel_size=(1, 1), stride=(1, 1), bias=False)
          (2): BatchNorm2d(33, eps=1e-05, momentum=0.1, affine=True, track_running_stats=True)
        )
      )
      (preprocess1): ReLUConvBN(
        (op): Sequential(
          (0): ReLU()
          (1): Conv2d(132, 33, kernel_size=(1, 1), stride=(1, 1), bias=False)
          (2): BatchNorm2d(33, eps=1e-05, momentum=0.1, affine=True, track_running_stats=True)
        )
      )
      (edges): ModuleDict(
        (2<-0): DualSepConv(
          (op_a): SepConv(
            (op): Sequential(
              (0): ReLU()
              (1): Conv2d(33, 33, kernel_size=(3, 3), stride=(1, 1), padding=(1, 1), groups=33, bias=False)
              (2): Conv2d(33, 33, kernel_size=(1, 1), stride=(1, 1), bias=False)
              (3): BatchNorm2d(33, eps=1e-05, momentum=0.1, affine=True, track_running_stats=True)
            )
          )
          (op_b): SepConv(
            (op): Sequential(
              (0): ReLU()
              (1): Conv2d(33, 33, kernel_size=(3, 3), stride=(1, 1), padding=(1, 1), groups=33, bias=False)
              (2): Conv2d(33, 33, kernel_size=(1, 1), stride=(1, 1), bias=False)
              (3): BatchNorm2d(33, eps=1e-05, momentum=0.1, affine=True, track_running_stats=True)
            )
          )
        )
        (3<-0): DualSepConv(
          (op_a): SepConv(
            (op): Sequential(
              (0): ReLU()
              (1): Conv2d(33, 33, kernel_size=(3, 3), stride=(1, 1), padding=(1, 1), groups=33, bias=False)
              (2): Conv2d(33, 33, kernel_size=(1, 1), stride=(1, 1), bias=False)
              (3): BatchNorm2d(33, eps=1e-05, momentum=0.1, affine=True, track_running_stats=True)
            )
          )
          (op_b): SepConv(
            (op): Sequential(
              (0): ReLU()
              (1): Conv2d(33, 33, kernel_size=(3, 3), stride=(1, 1), padding=(1, 1), groups=33, bias=False)
              (2): Conv2d(33, 33, kernel_size=(1, 1), stride=(1, 1), bias=False)
              (3): BatchNorm2d(33, eps=1e-05, momentum=0.1, affine=True, track_running_stats=True)
            )
          )
        )
        (4<-1): POOLING(
          (op): MaxPool2d(kernel_size=3, stride=1, padding=1, dilation=1, ceil_mode=False)
        )
        (4<-0): DualSepConv(
          (op_a): SepConv(
            (op): Sequential(
              (0): ReLU()
              (1): Conv2d(33, 33, kernel_size=(5, 5), stride=(1, 1), padding=(2, 2), groups=33, bias=False)
              (2): Conv2d(33, 33, kernel_size=(1, 1), stride=(1, 1), bias=False)
              (3): BatchNorm2d(33, eps=1e-05, momentum=0.1, affine=True, track_running_stats=True)
            )
          )
          (op_b): SepConv(
            (op): Sequential(
              (0): ReLU()
              (1): Conv2d(33, 33, kernel_size=(5, 5), stride=(1, 1), padding=(2, 2), groups=33, bias=False)
              (2): Conv2d(33, 33, kernel_size=(1, 1), stride=(1, 1), bias=False)
              (3): BatchNorm2d(33, eps=1e-05, momentum=0.1, affine=True, track_running_stats=True)
            )
          )
        )
        (5<-0): DualSepConv(
          (op_a): SepConv(
            (op): Sequential(
              (0): ReLU()
              (1): Conv2d(33, 33, kernel_size=(5, 5), stride=(1, 1), padding=(2, 2), groups=33, bias=False)
              (2): Conv2d(33, 33, kernel_size=(1, 1), stride=(1, 1), bias=False)
              (3): BatchNorm2d(33, eps=1e-05, momentum=0.1, affine=True, track_running_stats=True)
            )
          )
          (op_b): SepConv(
            (op): Sequential(
              (0): ReLU()
              (1): Conv2d(33, 33, kernel_size=(5, 5), stride=(1, 1), padding=(2, 2), groups=33, bias=False)
              (2): Conv2d(33, 33, kernel_size=(1, 1), stride=(1, 1), bias=False)
              (3): BatchNorm2d(33, eps=1e-05, momentum=0.1, affine=True, track_running_stats=True)
            )
          )
        )
        (5<-1): POOLING(
          (op): MaxPool2d(kernel_size=3, stride=1, padding=1, dilation=1, ceil_mode=False)
        )
      )
    )
    (6): NASNetInferCell(
      (preprocess0): ReLUConvBN(
        (op): Sequential(
          (0): ReLU()
          (1): Conv2d(132, 66, kernel_size=(1, 1), stride=(1, 1), bias=False)
          (2): BatchNorm2d(66, eps=1e-05, momentum=0.1, affine=True, track_running_stats=True)
        )
      )
      (preprocess1): ReLUConvBN(
        (op): Sequential(
          (0): ReLU()
          (1): Conv2d(132, 66, kernel_size=(1, 1), stride=(1, 1), bias=False)
          (2): BatchNorm2d(66, eps=1e-05, momentum=0.1, affine=True, track_running_stats=True)
        )
      )
      (edges): ModuleDict(
        (2<-0): DualSepConv(
          (op_a): SepConv(
            (op): Sequential(
              (0): ReLU()
              (1): Conv2d(66, 66, kernel_size=(5, 5), stride=(2, 2), padding=(2, 2), groups=66, bias=False)
              (2): Conv2d(66, 66, kernel_size=(1, 1), stride=(1, 1), bias=False)
              (3): BatchNorm2d(66, eps=1e-05, momentum=0.1, affine=True, track_running_stats=True)
            )
          )
          (op_b): SepConv(
            (op): Sequential(
              (0): ReLU()
              (1): Conv2d(66, 66, kernel_size=(5, 5), stride=(1, 1), padding=(2, 2), groups=66, bias=False)
              (2): Conv2d(66, 66, kernel_size=(1, 1), stride=(1, 1), bias=False)
              (3): BatchNorm2d(66, eps=1e-05, momentum=0.1, affine=True, track_running_stats=True)
            )
          )
        )
        (2<-1): DualSepConv(
          (op_a): SepConv(
            (op): Sequential(
              (0): ReLU()
              (1): Conv2d(66, 66, kernel_size=(5, 5), stride=(2, 2), padding=(2, 2), groups=66, bias=False)
              (2): Conv2d(66, 66, kernel_size=(1, 1), stride=(1, 1), bias=False)
              (3): BatchNorm2d(66, eps=1e-05, momentum=0.1, affine=True, track_running_stats=True)
            )
          )
          (op_b): SepConv(
            (op): Sequential(
              (0): ReLU()
              (1): Conv2d(66, 66, kernel_size=(5, 5), stride=(1, 1), padding=(2, 2), groups=66, bias=False)
              (2): Conv2d(66, 66, kernel_size=(1, 1), stride=(1, 1), bias=False)
              (3): BatchNorm2d(66, eps=1e-05, momentum=0.1, affine=True, track_running_stats=True)
            )
          )
        )
        (3<-0): DualSepConv(
          (op_a): SepConv(
            (op): Sequential(
              (0): ReLU()
              (1): Conv2d(66, 66, kernel_size=(5, 5), stride=(2, 2), padding=(2, 2), groups=66, bias=False)
              (2): Conv2d(66, 66, kernel_size=(1, 1), stride=(1, 1), bias=False)
              (3): BatchNorm2d(66, eps=1e-05, momentum=0.1, affine=True, track_running_stats=True)
            )
          )
          (op_b): SepConv(
            (op): Sequential(
              (0): ReLU()
              (1): Conv2d(66, 66, kernel_size=(5, 5), stride=(1, 1), padding=(2, 2), groups=66, bias=False)
              (2): Conv2d(66, 66, kernel_size=(1, 1), stride=(1, 1), bias=False)
              (3): BatchNorm2d(66, eps=1e-05, momentum=0.1, affine=True, track_running_stats=True)
            )
          )
        )
        (3<-2): DualSepConv(
          (op_a): SepConv(
            (op): Sequential(
              (0): ReLU()
              (1): Conv2d(66, 66, kernel_size=(5, 5), stride=(1, 1), padding=(2, 2), groups=66, bias=False)
              (2): Conv2d(66, 66, kernel_size=(1, 1), stride=(1, 1), bias=False)
              (3): BatchNorm2d(66, eps=1e-05, momentum=0.1, affine=True, track_running_stats=True)
            )
          )
          (op_b): SepConv(
            (op): Sequential(
              (0): ReLU()
              (1): Conv2d(66, 66, kernel_size=(5, 5), stride=(1, 1), padding=(2, 2), groups=66, bias=False)
              (2): Conv2d(66, 66, kernel_size=(1, 1), stride=(1, 1), bias=False)
              (3): BatchNorm2d(66, eps=1e-05, momentum=0.1, affine=True, track_running_stats=True)
            )
          )
        )
        (4<-0): DualSepConv(
          (op_a): SepConv(
            (op): Sequential(
              (0): ReLU()
              (1): Conv2d(66, 66, kernel_size=(5, 5), stride=(2, 2), padding=(2, 2), groups=66, bias=False)
              (2): Conv2d(66, 66, kernel_size=(1, 1), stride=(1, 1), bias=False)
              (3): BatchNorm2d(66, eps=1e-05, momentum=0.1, affine=True, track_running_stats=True)
            )
          )
          (op_b): SepConv(
            (op): Sequential(
              (0): ReLU()
              (1): Conv2d(66, 66, kernel_size=(5, 5), stride=(1, 1), padding=(2, 2), groups=66, bias=False)
              (2): Conv2d(66, 66, kernel_size=(1, 1), stride=(1, 1), bias=False)
              (3): BatchNorm2d(66, eps=1e-05, momentum=0.1, affine=True, track_running_stats=True)
            )
          )
        )
        (4<-3): DualSepConv(
          (op_a): SepConv(
            (op): Sequential(
              (0): ReLU()
              (1): Conv2d(66, 66, kernel_size=(5, 5), stride=(1, 1), padding=(2, 2), groups=66, bias=False)
              (2): Conv2d(66, 66, kernel_size=(1, 1), stride=(1, 1), bias=False)
              (3): BatchNorm2d(66, eps=1e-05, momentum=0.1, affine=True, track_running_stats=True)
            )
          )
          (op_b): SepConv(
            (op): Sequential(
              (0): ReLU()
              (1): Conv2d(66, 66, kernel_size=(5, 5), stride=(1, 1), padding=(2, 2), groups=66, bias=False)
              (2): Conv2d(66, 66, kernel_size=(1, 1), stride=(1, 1), bias=False)
              (3): BatchNorm2d(66, eps=1e-05, momentum=0.1, affine=True, track_running_stats=True)
            )
          )
        )
        (5<-0): DualSepConv(
          (op_a): SepConv(
            (op): Sequential(
              (0): ReLU()
              (1): Conv2d(66, 66, kernel_size=(5, 5), stride=(2, 2), padding=(2, 2), groups=66, bias=False)
              (2): Conv2d(66, 66, kernel_size=(1, 1), stride=(1, 1), bias=False)
              (3): BatchNorm2d(66, eps=1e-05, momentum=0.1, affine=True, track_running_stats=True)
            )
          )
          (op_b): SepConv(
            (op): Sequential(
              (0): ReLU()
              (1): Conv2d(66, 66, kernel_size=(5, 5), stride=(1, 1), padding=(2, 2), groups=66, bias=False)
              (2): Conv2d(66, 66, kernel_size=(1, 1), stride=(1, 1), bias=False)
              (3): BatchNorm2d(66, eps=1e-05, momentum=0.1, affine=True, track_running_stats=True)
            )
          )
        )
        (5<-4): DualSepConv(
          (op_a): SepConv(
            (op): Sequential(
              (0): ReLU()
              (1): Conv2d(66, 66, kernel_size=(5, 5), stride=(1, 1), padding=(2, 2), groups=66, bias=False)
              (2): Conv2d(66, 66, kernel_size=(1, 1), stride=(1, 1), bias=False)
              (3): BatchNorm2d(66, eps=1e-05, momentum=0.1, affine=True, track_running_stats=True)
            )
          )
          (op_b): SepConv(
            (op): Sequential(
              (0): ReLU()
              (1): Conv2d(66, 66, kernel_size=(5, 5), stride=(1, 1), padding=(2, 2), groups=66, bias=False)
              (2): Conv2d(66, 66, kernel_size=(1, 1), stride=(1, 1), bias=False)
              (3): BatchNorm2d(66, eps=1e-05, momentum=0.1, affine=True, track_running_stats=True)
            )
          )
        )
      )
    )
    (7): NASNetInferCell(
      (preprocess0): FactorizedReduce(
        C_in=132, C_out=66, stride=2
        (relu): ReLU()
        (convs): ModuleList(
          (0): Conv2d(132, 33, kernel_size=(1, 1), stride=(2, 2), bias=False)
          (1): Conv2d(132, 33, kernel_size=(1, 1), stride=(2, 2), bias=False)
        )
        (pad): ConstantPad2d(padding=(0, 1, 0, 1), value=0)
        (bn): BatchNorm2d(66, eps=1e-05, momentum=0.1, affine=True, track_running_stats=True)
      )
      (preprocess1): ReLUConvBN(
        (op): Sequential(
          (0): ReLU()
          (1): Conv2d(264, 66, kernel_size=(1, 1), stride=(1, 1), bias=False)
          (2): BatchNorm2d(66, eps=1e-05, momentum=0.1, affine=True, track_running_stats=True)
        )
      )
      (edges): ModuleDict(
        (2<-0): DualSepConv(
          (op_a): SepConv(
            (op): Sequential(
              (0): ReLU()
              (1): Conv2d(66, 66, kernel_size=(3, 3), stride=(1, 1), padding=(1, 1), groups=66, bias=False)
              (2): Conv2d(66, 66, kernel_size=(1, 1), stride=(1, 1), bias=False)
              (3): BatchNorm2d(66, eps=1e-05, momentum=0.1, affine=True, track_running_stats=True)
            )
          )
          (op_b): SepConv(
            (op): Sequential(
              (0): ReLU()
              (1): Conv2d(66, 66, kernel_size=(3, 3), stride=(1, 1), padding=(1, 1), groups=66, bias=False)
              (2): Conv2d(66, 66, kernel_size=(1, 1), stride=(1, 1), bias=False)
              (3): BatchNorm2d(66, eps=1e-05, momentum=0.1, affine=True, track_running_stats=True)
            )
          )
        )
        (3<-0): DualSepConv(
          (op_a): SepConv(
            (op): Sequential(
              (0): ReLU()
              (1): Conv2d(66, 66, kernel_size=(3, 3), stride=(1, 1), padding=(1, 1), groups=66, bias=False)
              (2): Conv2d(66, 66, kernel_size=(1, 1), stride=(1, 1), bias=False)
              (3): BatchNorm2d(66, eps=1e-05, momentum=0.1, affine=True, track_running_stats=True)
            )
          )
          (op_b): SepConv(
            (op): Sequential(
              (0): ReLU()
              (1): Conv2d(66, 66, kernel_size=(3, 3), stride=(1, 1), padding=(1, 1), groups=66, bias=False)
              (2): Conv2d(66, 66, kernel_size=(1, 1), stride=(1, 1), bias=False)
              (3): BatchNorm2d(66, eps=1e-05, momentum=0.1, affine=True, track_running_stats=True)
            )
          )
        )
        (4<-1): POOLING(
          (op): MaxPool2d(kernel_size=3, stride=1, padding=1, dilation=1, ceil_mode=False)
        )
        (4<-0): DualSepConv(
          (op_a): SepConv(
            (op): Sequential(
              (0): ReLU()
              (1): Conv2d(66, 66, kernel_size=(5, 5), stride=(1, 1), padding=(2, 2), groups=66, bias=False)
              (2): Conv2d(66, 66, kernel_size=(1, 1), stride=(1, 1), bias=False)
              (3): BatchNorm2d(66, eps=1e-05, momentum=0.1, affine=True, track_running_stats=True)
            )
          )
          (op_b): SepConv(
            (op): Sequential(
              (0): ReLU()
              (1): Conv2d(66, 66, kernel_size=(5, 5), stride=(1, 1), padding=(2, 2), groups=66, bias=False)
              (2): Conv2d(66, 66, kernel_size=(1, 1), stride=(1, 1), bias=False)
              (3): BatchNorm2d(66, eps=1e-05, momentum=0.1, affine=True, track_running_stats=True)
            )
          )
        )
        (5<-0): DualSepConv(
          (op_a): SepConv(
            (op): Sequential(
              (0): ReLU()
              (1): Conv2d(66, 66, kernel_size=(5, 5), stride=(1, 1), padding=(2, 2), groups=66, bias=False)
              (2): Conv2d(66, 66, kernel_size=(1, 1), stride=(1, 1), bias=False)
              (3): BatchNorm2d(66, eps=1e-05, momentum=0.1, affine=True, track_running_stats=True)
            )
          )
          (op_b): SepConv(
            (op): Sequential(
              (0): ReLU()
              (1): Conv2d(66, 66, kernel_size=(5, 5), stride=(1, 1), padding=(2, 2), groups=66, bias=False)
              (2): Conv2d(66, 66, kernel_size=(1, 1), stride=(1, 1), bias=False)
              (3): BatchNorm2d(66, eps=1e-05, momentum=0.1, affine=True, track_running_stats=True)
            )
          )
        )
        (5<-1): POOLING(
          (op): MaxPool2d(kernel_size=3, stride=1, padding=1, dilation=1, ceil_mode=False)
        )
      )
    )
    (8): NASNetInferCell(
      (preprocess0): ReLUConvBN(
        (op): Sequential(
          (0): ReLU()
          (1): Conv2d(264, 66, kernel_size=(1, 1), stride=(1, 1), bias=False)
          (2): BatchNorm2d(66, eps=1e-05, momentum=0.1, affine=True, track_running_stats=True)
        )
      )
      (preprocess1): ReLUConvBN(
        (op): Sequential(
          (0): ReLU()
          (1): Conv2d(264, 66, kernel_size=(1, 1), stride=(1, 1), bias=False)
          (2): BatchNorm2d(66, eps=1e-05, momentum=0.1, affine=True, track_running_stats=True)
        )
      )
      (edges): ModuleDict(
        (2<-0): DualSepConv(
          (op_a): SepConv(
            (op): Sequential(
              (0): ReLU()
              (1): Conv2d(66, 66, kernel_size=(3, 3), stride=(1, 1), padding=(1, 1), groups=66, bias=False)
              (2): Conv2d(66, 66, kernel_size=(1, 1), stride=(1, 1), bias=False)
              (3): BatchNorm2d(66, eps=1e-05, momentum=0.1, affine=True, track_running_stats=True)
            )
          )
          (op_b): SepConv(
            (op): Sequential(
              (0): ReLU()
              (1): Conv2d(66, 66, kernel_size=(3, 3), stride=(1, 1), padding=(1, 1), groups=66, bias=False)
              (2): Conv2d(66, 66, kernel_size=(1, 1), stride=(1, 1), bias=False)
              (3): BatchNorm2d(66, eps=1e-05, momentum=0.1, affine=True, track_running_stats=True)
            )
          )
        )
        (3<-0): DualSepConv(
          (op_a): SepConv(
            (op): Sequential(
              (0): ReLU()
              (1): Conv2d(66, 66, kernel_size=(3, 3), stride=(1, 1), padding=(1, 1), groups=66, bias=False)
              (2): Conv2d(66, 66, kernel_size=(1, 1), stride=(1, 1), bias=False)
              (3): BatchNorm2d(66, eps=1e-05, momentum=0.1, affine=True, track_running_stats=True)
            )
          )
          (op_b): SepConv(
            (op): Sequential(
              (0): ReLU()
              (1): Conv2d(66, 66, kernel_size=(3, 3), stride=(1, 1), padding=(1, 1), groups=66, bias=False)
              (2): Conv2d(66, 66, kernel_size=(1, 1), stride=(1, 1), bias=False)
              (3): BatchNorm2d(66, eps=1e-05, momentum=0.1, affine=True, track_running_stats=True)
            )
          )
        )
        (4<-1): POOLING(
          (op): MaxPool2d(kernel_size=3, stride=1, padding=1, dilation=1, ceil_mode=False)
        )
        (4<-0): DualSepConv(
          (op_a): SepConv(
            (op): Sequential(
              (0): ReLU()
              (1): Conv2d(66, 66, kernel_size=(5, 5), stride=(1, 1), padding=(2, 2), groups=66, bias=False)
              (2): Conv2d(66, 66, kernel_size=(1, 1), stride=(1, 1), bias=False)
              (3): BatchNorm2d(66, eps=1e-05, momentum=0.1, affine=True, track_running_stats=True)
            )
          )
          (op_b): SepConv(
            (op): Sequential(
              (0): ReLU()
              (1): Conv2d(66, 66, kernel_size=(5, 5), stride=(1, 1), padding=(2, 2), groups=66, bias=False)
              (2): Conv2d(66, 66, kernel_size=(1, 1), stride=(1, 1), bias=False)
              (3): BatchNorm2d(66, eps=1e-05, momentum=0.1, affine=True, track_running_stats=True)
            )
          )
        )
        (5<-0): DualSepConv(
          (op_a): SepConv(
            (op): Sequential(
              (0): ReLU()
              (1): Conv2d(66, 66, kernel_size=(5, 5), stride=(1, 1), padding=(2, 2), groups=66, bias=False)
              (2): Conv2d(66, 66, kernel_size=(1, 1), stride=(1, 1), bias=False)
              (3): BatchNorm2d(66, eps=1e-05, momentum=0.1, affine=True, track_running_stats=True)
            )
          )
          (op_b): SepConv(
            (op): Sequential(
              (0): ReLU()
              (1): Conv2d(66, 66, kernel_size=(5, 5), stride=(1, 1), padding=(2, 2), groups=66, bias=False)
              (2): Conv2d(66, 66, kernel_size=(1, 1), stride=(1, 1), bias=False)
              (3): BatchNorm2d(66, eps=1e-05, momentum=0.1, affine=True, track_running_stats=True)
            )
          )
        )
        (5<-1): POOLING(
          (op): MaxPool2d(kernel_size=3, stride=1, padding=1, dilation=1, ceil_mode=False)
        )
      )
    )
    (9): NASNetInferCell(
      (preprocess0): ReLUConvBN(
        (op): Sequential(
          (0): ReLU()
          (1): Conv2d(264, 66, kernel_size=(1, 1), stride=(1, 1), bias=False)
          (2): BatchNorm2d(66, eps=1e-05, momentum=0.1, affine=True, track_running_stats=True)
        )
      )
      (preprocess1): ReLUConvBN(
        (op): Sequential(
          (0): ReLU()
          (1): Conv2d(264, 66, kernel_size=(1, 1), stride=(1, 1), bias=False)
          (2): BatchNorm2d(66, eps=1e-05, momentum=0.1, affine=True, track_running_stats=True)
        )
      )
      (edges): ModuleDict(
        (2<-0): DualSepConv(
          (op_a): SepConv(
            (op): Sequential(
              (0): ReLU()
              (1): Conv2d(66, 66, kernel_size=(3, 3), stride=(1, 1), padding=(1, 1), groups=66, bias=False)
              (2): Conv2d(66, 66, kernel_size=(1, 1), stride=(1, 1), bias=False)
              (3): BatchNorm2d(66, eps=1e-05, momentum=0.1, affine=True, track_running_stats=True)
            )
          )
          (op_b): SepConv(
            (op): Sequential(
              (0): ReLU()
              (1): Conv2d(66, 66, kernel_size=(3, 3), stride=(1, 1), padding=(1, 1), groups=66, bias=False)
              (2): Conv2d(66, 66, kernel_size=(1, 1), stride=(1, 1), bias=False)
              (3): BatchNorm2d(66, eps=1e-05, momentum=0.1, affine=True, track_running_stats=True)
            )
          )
        )
        (3<-0): DualSepConv(
          (op_a): SepConv(
            (op): Sequential(
              (0): ReLU()
              (1): Conv2d(66, 66, kernel_size=(3, 3), stride=(1, 1), padding=(1, 1), groups=66, bias=False)
              (2): Conv2d(66, 66, kernel_size=(1, 1), stride=(1, 1), bias=False)
              (3): BatchNorm2d(66, eps=1e-05, momentum=0.1, affine=True, track_running_stats=True)
            )
          )
          (op_b): SepConv(
            (op): Sequential(
              (0): ReLU()
              (1): Conv2d(66, 66, kernel_size=(3, 3), stride=(1, 1), padding=(1, 1), groups=66, bias=False)
              (2): Conv2d(66, 66, kernel_size=(1, 1), stride=(1, 1), bias=False)
              (3): BatchNorm2d(66, eps=1e-05, momentum=0.1, affine=True, track_running_stats=True)
            )
          )
        )
        (4<-1): POOLING(
          (op): MaxPool2d(kernel_size=3, stride=1, padding=1, dilation=1, ceil_mode=False)
        )
        (4<-0): DualSepConv(
          (op_a): SepConv(
            (op): Sequential(
              (0): ReLU()
              (1): Conv2d(66, 66, kernel_size=(5, 5), stride=(1, 1), padding=(2, 2), groups=66, bias=False)
              (2): Conv2d(66, 66, kernel_size=(1, 1), stride=(1, 1), bias=False)
              (3): BatchNorm2d(66, eps=1e-05, momentum=0.1, affine=True, track_running_stats=True)
            )
          )
          (op_b): SepConv(
            (op): Sequential(
              (0): ReLU()
              (1): Conv2d(66, 66, kernel_size=(5, 5), stride=(1, 1), padding=(2, 2), groups=66, bias=False)
              (2): Conv2d(66, 66, kernel_size=(1, 1), stride=(1, 1), bias=False)
              (3): BatchNorm2d(66, eps=1e-05, momentum=0.1, affine=True, track_running_stats=True)
            )
          )
        )
        (5<-0): DualSepConv(
          (op_a): SepConv(
            (op): Sequential(
              (0): ReLU()
              (1): Conv2d(66, 66, kernel_size=(5, 5), stride=(1, 1), padding=(2, 2), groups=66, bias=False)
              (2): Conv2d(66, 66, kernel_size=(1, 1), stride=(1, 1), bias=False)
              (3): BatchNorm2d(66, eps=1e-05, momentum=0.1, affine=True, track_running_stats=True)
            )
          )
          (op_b): SepConv(
            (op): Sequential(
              (0): ReLU()
              (1): Conv2d(66, 66, kernel_size=(5, 5), stride=(1, 1), padding=(2, 2), groups=66, bias=False)
              (2): Conv2d(66, 66, kernel_size=(1, 1), stride=(1, 1), bias=False)
              (3): BatchNorm2d(66, eps=1e-05, momentum=0.1, affine=True, track_running_stats=True)
            )
          )
        )
        (5<-1): POOLING(
          (op): MaxPool2d(kernel_size=3, stride=1, padding=1, dilation=1, ceil_mode=False)
        )
      )
    )
    (10): NASNetInferCell(
      (preprocess0): ReLUConvBN(
        (op): Sequential(
          (0): ReLU()
          (1): Conv2d(264, 66, kernel_size=(1, 1), stride=(1, 1), bias=False)
          (2): BatchNorm2d(66, eps=1e-05, momentum=0.1, affine=True, track_running_stats=True)
        )
      )
      (preprocess1): ReLUConvBN(
        (op): Sequential(
          (0): ReLU()
          (1): Conv2d(264, 66, kernel_size=(1, 1), stride=(1, 1), bias=False)
          (2): BatchNorm2d(66, eps=1e-05, momentum=0.1, affine=True, track_running_stats=True)
        )
      )
      (edges): ModuleDict(
        (2<-0): DualSepConv(
          (op_a): SepConv(
            (op): Sequential(
              (0): ReLU()
              (1): Conv2d(66, 66, kernel_size=(3, 3), stride=(1, 1), padding=(1, 1), groups=66, bias=False)
              (2): Conv2d(66, 66, kernel_size=(1, 1), stride=(1, 1), bias=False)
              (3): BatchNorm2d(66, eps=1e-05, momentum=0.1, affine=True, track_running_stats=True)
            )
          )
          (op_b): SepConv(
            (op): Sequential(
              (0): ReLU()
              (1): Conv2d(66, 66, kernel_size=(3, 3), stride=(1, 1), padding=(1, 1), groups=66, bias=False)
              (2): Conv2d(66, 66, kernel_size=(1, 1), stride=(1, 1), bias=False)
              (3): BatchNorm2d(66, eps=1e-05, momentum=0.1, affine=True, track_running_stats=True)
            )
          )
        )
        (3<-0): DualSepConv(
          (op_a): SepConv(
            (op): Sequential(
              (0): ReLU()
              (1): Conv2d(66, 66, kernel_size=(3, 3), stride=(1, 1), padding=(1, 1), groups=66, bias=False)
              (2): Conv2d(66, 66, kernel_size=(1, 1), stride=(1, 1), bias=False)
              (3): BatchNorm2d(66, eps=1e-05, momentum=0.1, affine=True, track_running_stats=True)
            )
          )
          (op_b): SepConv(
            (op): Sequential(
              (0): ReLU()
              (1): Conv2d(66, 66, kernel_size=(3, 3), stride=(1, 1), padding=(1, 1), groups=66, bias=False)
              (2): Conv2d(66, 66, kernel_size=(1, 1), stride=(1, 1), bias=False)
              (3): BatchNorm2d(66, eps=1e-05, momentum=0.1, affine=True, track_running_stats=True)
            )
          )
        )
        (4<-1): POOLING(
          (op): MaxPool2d(kernel_size=3, stride=1, padding=1, dilation=1, ceil_mode=False)
        )
        (4<-0): DualSepConv(
          (op_a): SepConv(
            (op): Sequential(
              (0): ReLU()
              (1): Conv2d(66, 66, kernel_size=(5, 5), stride=(1, 1), padding=(2, 2), groups=66, bias=False)
              (2): Conv2d(66, 66, kernel_size=(1, 1), stride=(1, 1), bias=False)
              (3): BatchNorm2d(66, eps=1e-05, momentum=0.1, affine=True, track_running_stats=True)
            )
          )
          (op_b): SepConv(
            (op): Sequential(
              (0): ReLU()
              (1): Conv2d(66, 66, kernel_size=(5, 5), stride=(1, 1), padding=(2, 2), groups=66, bias=False)
              (2): Conv2d(66, 66, kernel_size=(1, 1), stride=(1, 1), bias=False)
              (3): BatchNorm2d(66, eps=1e-05, momentum=0.1, affine=True, track_running_stats=True)
            )
          )
        )
        (5<-0): DualSepConv(
          (op_a): SepConv(
            (op): Sequential(
              (0): ReLU()
              (1): Conv2d(66, 66, kernel_size=(5, 5), stride=(1, 1), padding=(2, 2), groups=66, bias=False)
              (2): Conv2d(66, 66, kernel_size=(1, 1), stride=(1, 1), bias=False)
              (3): BatchNorm2d(66, eps=1e-05, momentum=0.1, affine=True, track_running_stats=True)
            )
          )
          (op_b): SepConv(
            (op): Sequential(
              (0): ReLU()
              (1): Conv2d(66, 66, kernel_size=(5, 5), stride=(1, 1), padding=(2, 2), groups=66, bias=False)
              (2): Conv2d(66, 66, kernel_size=(1, 1), stride=(1, 1), bias=False)
              (3): BatchNorm2d(66, eps=1e-05, momentum=0.1, affine=True, track_running_stats=True)
            )
          )
        )
        (5<-1): POOLING(
          (op): MaxPool2d(kernel_size=3, stride=1, padding=1, dilation=1, ceil_mode=False)
        )
      )
    )
    (11): NASNetInferCell(
      (preprocess0): ReLUConvBN(
        (op): Sequential(
          (0): ReLU()
          (1): Conv2d(264, 66, kernel_size=(1, 1), stride=(1, 1), bias=False)
          (2): BatchNorm2d(66, eps=1e-05, momentum=0.1, affine=True, track_running_stats=True)
        )
      )
      (preprocess1): ReLUConvBN(
        (op): Sequential(
          (0): ReLU()
          (1): Conv2d(264, 66, kernel_size=(1, 1), stride=(1, 1), bias=False)
          (2): BatchNorm2d(66, eps=1e-05, momentum=0.1, affine=True, track_running_stats=True)
        )
      )
      (edges): ModuleDict(
        (2<-0): DualSepConv(
          (op_a): SepConv(
            (op): Sequential(
              (0): ReLU()
              (1): Conv2d(66, 66, kernel_size=(3, 3), stride=(1, 1), padding=(1, 1), groups=66, bias=False)
              (2): Conv2d(66, 66, kernel_size=(1, 1), stride=(1, 1), bias=False)
              (3): BatchNorm2d(66, eps=1e-05, momentum=0.1, affine=True, track_running_stats=True)
            )
          )
          (op_b): SepConv(
            (op): Sequential(
              (0): ReLU()
              (1): Conv2d(66, 66, kernel_size=(3, 3), stride=(1, 1), padding=(1, 1), groups=66, bias=False)
              (2): Conv2d(66, 66, kernel_size=(1, 1), stride=(1, 1), bias=False)
              (3): BatchNorm2d(66, eps=1e-05, momentum=0.1, affine=True, track_running_stats=True)
            )
          )
        )
        (3<-0): DualSepConv(
          (op_a): SepConv(
            (op): Sequential(
              (0): ReLU()
              (1): Conv2d(66, 66, kernel_size=(3, 3), stride=(1, 1), padding=(1, 1), groups=66, bias=False)
              (2): Conv2d(66, 66, kernel_size=(1, 1), stride=(1, 1), bias=False)
              (3): BatchNorm2d(66, eps=1e-05, momentum=0.1, affine=True, track_running_stats=True)
            )
          )
          (op_b): SepConv(
            (op): Sequential(
              (0): ReLU()
              (1): Conv2d(66, 66, kernel_size=(3, 3), stride=(1, 1), padding=(1, 1), groups=66, bias=False)
              (2): Conv2d(66, 66, kernel_size=(1, 1), stride=(1, 1), bias=False)
              (3): BatchNorm2d(66, eps=1e-05, momentum=0.1, affine=True, track_running_stats=True)
            )
          )
        )
        (4<-1): POOLING(
          (op): MaxPool2d(kernel_size=3, stride=1, padding=1, dilation=1, ceil_mode=False)
        )
        (4<-0): DualSepConv(
          (op_a): SepConv(
            (op): Sequential(
              (0): ReLU()
              (1): Conv2d(66, 66, kernel_size=(5, 5), stride=(1, 1), padding=(2, 2), groups=66, bias=False)
              (2): Conv2d(66, 66, kernel_size=(1, 1), stride=(1, 1), bias=False)
              (3): BatchNorm2d(66, eps=1e-05, momentum=0.1, affine=True, track_running_stats=True)
            )
          )
          (op_b): SepConv(
            (op): Sequential(
              (0): ReLU()
              (1): Conv2d(66, 66, kernel_size=(5, 5), stride=(1, 1), padding=(2, 2), groups=66, bias=False)
              (2): Conv2d(66, 66, kernel_size=(1, 1), stride=(1, 1), bias=False)
              (3): BatchNorm2d(66, eps=1e-05, momentum=0.1, affine=True, track_running_stats=True)
            )
          )
        )
        (5<-0): DualSepConv(
          (op_a): SepConv(
            (op): Sequential(
              (0): ReLU()
              (1): Conv2d(66, 66, kernel_size=(5, 5), stride=(1, 1), padding=(2, 2), groups=66, bias=False)
              (2): Conv2d(66, 66, kernel_size=(1, 1), stride=(1, 1), bias=False)
              (3): BatchNorm2d(66, eps=1e-05, momentum=0.1, affine=True, track_running_stats=True)
            )
          )
          (op_b): SepConv(
            (op): Sequential(
              (0): ReLU()
              (1): Conv2d(66, 66, kernel_size=(5, 5), stride=(1, 1), padding=(2, 2), groups=66, bias=False)
              (2): Conv2d(66, 66, kernel_size=(1, 1), stride=(1, 1), bias=False)
              (3): BatchNorm2d(66, eps=1e-05, momentum=0.1, affine=True, track_running_stats=True)
            )
          )
        )
        (5<-1): POOLING(
          (op): MaxPool2d(kernel_size=3, stride=1, padding=1, dilation=1, ceil_mode=False)
        )
      )
    )
    (12): NASNetInferCell(
      (preprocess0): ReLUConvBN(
        (op): Sequential(
          (0): ReLU()
          (1): Conv2d(264, 132, kernel_size=(1, 1), stride=(1, 1), bias=False)
          (2): BatchNorm2d(132, eps=1e-05, momentum=0.1, affine=True, track_running_stats=True)
        )
      )
      (preprocess1): ReLUConvBN(
        (op): Sequential(
          (0): ReLU()
          (1): Conv2d(264, 132, kernel_size=(1, 1), stride=(1, 1), bias=False)
          (2): BatchNorm2d(132, eps=1e-05, momentum=0.1, affine=True, track_running_stats=True)
        )
      )
      (edges): ModuleDict(
        (2<-0): DualSepConv(
          (op_a): SepConv(
            (op): Sequential(
              (0): ReLU()
              (1): Conv2d(132, 132, kernel_size=(5, 5), stride=(2, 2), padding=(2, 2), groups=132, bias=False)
              (2): Conv2d(132, 132, kernel_size=(1, 1), stride=(1, 1), bias=False)
              (3): BatchNorm2d(132, eps=1e-05, momentum=0.1, affine=True, track_running_stats=True)
            )
          )
          (op_b): SepConv(
            (op): Sequential(
              (0): ReLU()
              (1): Conv2d(132, 132, kernel_size=(5, 5), stride=(1, 1), padding=(2, 2), groups=132, bias=False)
              (2): Conv2d(132, 132, kernel_size=(1, 1), stride=(1, 1), bias=False)
              (3): BatchNorm2d(132, eps=1e-05, momentum=0.1, affine=True, track_running_stats=True)
            )
          )
        )
        (2<-1): DualSepConv(
          (op_a): SepConv(
            (op): Sequential(
              (0): ReLU()
              (1): Conv2d(132, 132, kernel_size=(5, 5), stride=(2, 2), padding=(2, 2), groups=132, bias=False)
              (2): Conv2d(132, 132, kernel_size=(1, 1), stride=(1, 1), bias=False)
              (3): BatchNorm2d(132, eps=1e-05, momentum=0.1, affine=True, track_running_stats=True)
            )
          )
          (op_b): SepConv(
            (op): Sequential(
              (0): ReLU()
              (1): Conv2d(132, 132, kernel_size=(5, 5), stride=(1, 1), padding=(2, 2), groups=132, bias=False)
              (2): Conv2d(132, 132, kernel_size=(1, 1), stride=(1, 1), bias=False)
              (3): BatchNorm2d(132, eps=1e-05, momentum=0.1, affine=True, track_running_stats=True)
            )
          )
        )
        (3<-0): DualSepConv(
          (op_a): SepConv(
            (op): Sequential(
              (0): ReLU()
              (1): Conv2d(132, 132, kernel_size=(5, 5), stride=(2, 2), padding=(2, 2), groups=132, bias=False)
              (2): Conv2d(132, 132, kernel_size=(1, 1), stride=(1, 1), bias=False)
              (3): BatchNorm2d(132, eps=1e-05, momentum=0.1, affine=True, track_running_stats=True)
            )
          )
          (op_b): SepConv(
            (op): Sequential(
              (0): ReLU()
              (1): Conv2d(132, 132, kernel_size=(5, 5), stride=(1, 1), padding=(2, 2), groups=132, bias=False)
              (2): Conv2d(132, 132, kernel_size=(1, 1), stride=(1, 1), bias=False)
              (3): BatchNorm2d(132, eps=1e-05, momentum=0.1, affine=True, track_running_stats=True)
            )
          )
        )
        (3<-2): DualSepConv(
          (op_a): SepConv(
            (op): Sequential(
              (0): ReLU()
              (1): Conv2d(132, 132, kernel_size=(5, 5), stride=(1, 1), padding=(2, 2), groups=132, bias=False)
              (2): Conv2d(132, 132, kernel_size=(1, 1), stride=(1, 1), bias=False)
              (3): BatchNorm2d(132, eps=1e-05, momentum=0.1, affine=True, track_running_stats=True)
            )
          )
          (op_b): SepConv(
            (op): Sequential(
              (0): ReLU()
              (1): Conv2d(132, 132, kernel_size=(5, 5), stride=(1, 1), padding=(2, 2), groups=132, bias=False)
              (2): Conv2d(132, 132, kernel_size=(1, 1), stride=(1, 1), bias=False)
              (3): BatchNorm2d(132, eps=1e-05, momentum=0.1, affine=True, track_running_stats=True)
            )
          )
        )
        (4<-0): DualSepConv(
          (op_a): SepConv(
            (op): Sequential(
              (0): ReLU()
              (1): Conv2d(132, 132, kernel_size=(5, 5), stride=(2, 2), padding=(2, 2), groups=132, bias=False)
              (2): Conv2d(132, 132, kernel_size=(1, 1), stride=(1, 1), bias=False)
              (3): BatchNorm2d(132, eps=1e-05, momentum=0.1, affine=True, track_running_stats=True)
            )
          )
          (op_b): SepConv(
            (op): Sequential(
              (0): ReLU()
              (1): Conv2d(132, 132, kernel_size=(5, 5), stride=(1, 1), padding=(2, 2), groups=132, bias=False)
              (2): Conv2d(132, 132, kernel_size=(1, 1), stride=(1, 1), bias=False)
              (3): BatchNorm2d(132, eps=1e-05, momentum=0.1, affine=True, track_running_stats=True)
            )
          )
        )
        (4<-3): DualSepConv(
          (op_a): SepConv(
            (op): Sequential(
              (0): ReLU()
              (1): Conv2d(132, 132, kernel_size=(5, 5), stride=(1, 1), padding=(2, 2), groups=132, bias=False)
              (2): Conv2d(132, 132, kernel_size=(1, 1), stride=(1, 1), bias=False)
              (3): BatchNorm2d(132, eps=1e-05, momentum=0.1, affine=True, track_running_stats=True)
            )
          )
          (op_b): SepConv(
            (op): Sequential(
              (0): ReLU()
              (1): Conv2d(132, 132, kernel_size=(5, 5), stride=(1, 1), padding=(2, 2), groups=132, bias=False)
              (2): Conv2d(132, 132, kernel_size=(1, 1), stride=(1, 1), bias=False)
              (3): BatchNorm2d(132, eps=1e-05, momentum=0.1, affine=True, track_running_stats=True)
            )
          )
        )
        (5<-0): DualSepConv(
          (op_a): SepConv(
            (op): Sequential(
              (0): ReLU()
              (1): Conv2d(132, 132, kernel_size=(5, 5), stride=(2, 2), padding=(2, 2), groups=132, bias=False)
              (2): Conv2d(132, 132, kernel_size=(1, 1), stride=(1, 1), bias=False)
              (3): BatchNorm2d(132, eps=1e-05, momentum=0.1, affine=True, track_running_stats=True)
            )
          )
          (op_b): SepConv(
            (op): Sequential(
              (0): ReLU()
              (1): Conv2d(132, 132, kernel_size=(5, 5), stride=(1, 1), padding=(2, 2), groups=132, bias=False)
              (2): Conv2d(132, 132, kernel_size=(1, 1), stride=(1, 1), bias=False)
              (3): BatchNorm2d(132, eps=1e-05, momentum=0.1, affine=True, track_running_stats=True)
            )
          )
        )
        (5<-4): DualSepConv(
          (op_a): SepConv(
            (op): Sequential(
              (0): ReLU()
              (1): Conv2d(132, 132, kernel_size=(5, 5), stride=(1, 1), padding=(2, 2), groups=132, bias=False)
              (2): Conv2d(132, 132, kernel_size=(1, 1), stride=(1, 1), bias=False)
              (3): BatchNorm2d(132, eps=1e-05, momentum=0.1, affine=True, track_running_stats=True)
            )
          )
          (op_b): SepConv(
            (op): Sequential(
              (0): ReLU()
              (1): Conv2d(132, 132, kernel_size=(5, 5), stride=(1, 1), padding=(2, 2), groups=132, bias=False)
              (2): Conv2d(132, 132, kernel_size=(1, 1), stride=(1, 1), bias=False)
              (3): BatchNorm2d(132, eps=1e-05, momentum=0.1, affine=True, track_running_stats=True)
            )
          )
        )
      )
    )
    (13): NASNetInferCell(
      (preprocess0): FactorizedReduce(
        C_in=264, C_out=132, stride=2
        (relu): ReLU()
        (convs): ModuleList(
          (0): Conv2d(264, 66, kernel_size=(1, 1), stride=(2, 2), bias=False)
          (1): Conv2d(264, 66, kernel_size=(1, 1), stride=(2, 2), bias=False)
        )
        (pad): ConstantPad2d(padding=(0, 1, 0, 1), value=0)
        (bn): BatchNorm2d(132, eps=1e-05, momentum=0.1, affine=True, track_running_stats=True)
      )
      (preprocess1): ReLUConvBN(
        (op): Sequential(
          (0): ReLU()
          (1): Conv2d(528, 132, kernel_size=(1, 1), stride=(1, 1), bias=False)
          (2): BatchNorm2d(132, eps=1e-05, momentum=0.1, affine=True, track_running_stats=True)
        )
      )
      (edges): ModuleDict(
        (2<-0): DualSepConv(
          (op_a): SepConv(
            (op): Sequential(
              (0): ReLU()
              (1): Conv2d(132, 132, kernel_size=(3, 3), stride=(1, 1), padding=(1, 1), groups=132, bias=False)
              (2): Conv2d(132, 132, kernel_size=(1, 1), stride=(1, 1), bias=False)
              (3): BatchNorm2d(132, eps=1e-05, momentum=0.1, affine=True, track_running_stats=True)
            )
          )
          (op_b): SepConv(
            (op): Sequential(
              (0): ReLU()
              (1): Conv2d(132, 132, kernel_size=(3, 3), stride=(1, 1), padding=(1, 1), groups=132, bias=False)
              (2): Conv2d(132, 132, kernel_size=(1, 1), stride=(1, 1), bias=False)
              (3): BatchNorm2d(132, eps=1e-05, momentum=0.1, affine=True, track_running_stats=True)
            )
          )
        )
        (3<-0): DualSepConv(
          (op_a): SepConv(
            (op): Sequential(
              (0): ReLU()
              (1): Conv2d(132, 132, kernel_size=(3, 3), stride=(1, 1), padding=(1, 1), groups=132, bias=False)
              (2): Conv2d(132, 132, kernel_size=(1, 1), stride=(1, 1), bias=False)
              (3): BatchNorm2d(132, eps=1e-05, momentum=0.1, affine=True, track_running_stats=True)
            )
          )
          (op_b): SepConv(
            (op): Sequential(
              (0): ReLU()
              (1): Conv2d(132, 132, kernel_size=(3, 3), stride=(1, 1), padding=(1, 1), groups=132, bias=False)
              (2): Conv2d(132, 132, kernel_size=(1, 1), stride=(1, 1), bias=False)
              (3): BatchNorm2d(132, eps=1e-05, momentum=0.1, affine=True, track_running_stats=True)
            )
          )
        )
        (4<-1): POOLING(
          (op): MaxPool2d(kernel_size=3, stride=1, padding=1, dilation=1, ceil_mode=False)
        )
        (4<-0): DualSepConv(
          (op_a): SepConv(
            (op): Sequential(
              (0): ReLU()
              (1): Conv2d(132, 132, kernel_size=(5, 5), stride=(1, 1), padding=(2, 2), groups=132, bias=False)
              (2): Conv2d(132, 132, kernel_size=(1, 1), stride=(1, 1), bias=False)
              (3): BatchNorm2d(132, eps=1e-05, momentum=0.1, affine=True, track_running_stats=True)
            )
          )
          (op_b): SepConv(
            (op): Sequential(
              (0): ReLU()
              (1): Conv2d(132, 132, kernel_size=(5, 5), stride=(1, 1), padding=(2, 2), groups=132, bias=False)
              (2): Conv2d(132, 132, kernel_size=(1, 1), stride=(1, 1), bias=False)
              (3): BatchNorm2d(132, eps=1e-05, momentum=0.1, affine=True, track_running_stats=True)
            )
          )
        )
        (5<-0): DualSepConv(
          (op_a): SepConv(
            (op): Sequential(
              (0): ReLU()
              (1): Conv2d(132, 132, kernel_size=(5, 5), stride=(1, 1), padding=(2, 2), groups=132, bias=False)
              (2): Conv2d(132, 132, kernel_size=(1, 1), stride=(1, 1), bias=False)
              (3): BatchNorm2d(132, eps=1e-05, momentum=0.1, affine=True, track_running_stats=True)
            )
          )
          (op_b): SepConv(
            (op): Sequential(
              (0): ReLU()
              (1): Conv2d(132, 132, kernel_size=(5, 5), stride=(1, 1), padding=(2, 2), groups=132, bias=False)
              (2): Conv2d(132, 132, kernel_size=(1, 1), stride=(1, 1), bias=False)
              (3): BatchNorm2d(132, eps=1e-05, momentum=0.1, affine=True, track_running_stats=True)
            )
          )
        )
        (5<-1): POOLING(
          (op): MaxPool2d(kernel_size=3, stride=1, padding=1, dilation=1, ceil_mode=False)
        )
      )
    )
    (14): NASNetInferCell(
      (preprocess0): ReLUConvBN(
        (op): Sequential(
          (0): ReLU()
          (1): Conv2d(528, 132, kernel_size=(1, 1), stride=(1, 1), bias=False)
          (2): BatchNorm2d(132, eps=1e-05, momentum=0.1, affine=True, track_running_stats=True)
        )
      )
      (preprocess1): ReLUConvBN(
        (op): Sequential(
          (0): ReLU()
          (1): Conv2d(528, 132, kernel_size=(1, 1), stride=(1, 1), bias=False)
          (2): BatchNorm2d(132, eps=1e-05, momentum=0.1, affine=True, track_running_stats=True)
        )
      )
      (edges): ModuleDict(
        (2<-0): DualSepConv(
          (op_a): SepConv(
            (op): Sequential(
              (0): ReLU()
              (1): Conv2d(132, 132, kernel_size=(3, 3), stride=(1, 1), padding=(1, 1), groups=132, bias=False)
              (2): Conv2d(132, 132, kernel_size=(1, 1), stride=(1, 1), bias=False)
              (3): BatchNorm2d(132, eps=1e-05, momentum=0.1, affine=True, track_running_stats=True)
            )
          )
          (op_b): SepConv(
            (op): Sequential(
              (0): ReLU()
              (1): Conv2d(132, 132, kernel_size=(3, 3), stride=(1, 1), padding=(1, 1), groups=132, bias=False)
              (2): Conv2d(132, 132, kernel_size=(1, 1), stride=(1, 1), bias=False)
              (3): BatchNorm2d(132, eps=1e-05, momentum=0.1, affine=True, track_running_stats=True)
            )
          )
        )
        (3<-0): DualSepConv(
          (op_a): SepConv(
            (op): Sequential(
              (0): ReLU()
              (1): Conv2d(132, 132, kernel_size=(3, 3), stride=(1, 1), padding=(1, 1), groups=132, bias=False)
              (2): Conv2d(132, 132, kernel_size=(1, 1), stride=(1, 1), bias=False)
              (3): BatchNorm2d(132, eps=1e-05, momentum=0.1, affine=True, track_running_stats=True)
            )
          )
          (op_b): SepConv(
            (op): Sequential(
              (0): ReLU()
              (1): Conv2d(132, 132, kernel_size=(3, 3), stride=(1, 1), padding=(1, 1), groups=132, bias=False)
              (2): Conv2d(132, 132, kernel_size=(1, 1), stride=(1, 1), bias=False)
              (3): BatchNorm2d(132, eps=1e-05, momentum=0.1, affine=True, track_running_stats=True)
            )
          )
        )
        (4<-1): POOLING(
          (op): MaxPool2d(kernel_size=3, stride=1, padding=1, dilation=1, ceil_mode=False)
        )
        (4<-0): DualSepConv(
          (op_a): SepConv(
            (op): Sequential(
              (0): ReLU()
              (1): Conv2d(132, 132, kernel_size=(5, 5), stride=(1, 1), padding=(2, 2), groups=132, bias=False)
              (2): Conv2d(132, 132, kernel_size=(1, 1), stride=(1, 1), bias=False)
              (3): BatchNorm2d(132, eps=1e-05, momentum=0.1, affine=True, track_running_stats=True)
            )
          )
          (op_b): SepConv(
            (op): Sequential(
              (0): ReLU()
              (1): Conv2d(132, 132, kernel_size=(5, 5), stride=(1, 1), padding=(2, 2), groups=132, bias=False)
              (2): Conv2d(132, 132, kernel_size=(1, 1), stride=(1, 1), bias=False)
              (3): BatchNorm2d(132, eps=1e-05, momentum=0.1, affine=True, track_running_stats=True)
            )
          )
        )
        (5<-0): DualSepConv(
          (op_a): SepConv(
            (op): Sequential(
              (0): ReLU()
              (1): Conv2d(132, 132, kernel_size=(5, 5), stride=(1, 1), padding=(2, 2), groups=132, bias=False)
              (2): Conv2d(132, 132, kernel_size=(1, 1), stride=(1, 1), bias=False)
              (3): BatchNorm2d(132, eps=1e-05, momentum=0.1, affine=True, track_running_stats=True)
            )
          )
          (op_b): SepConv(
            (op): Sequential(
              (0): ReLU()
              (1): Conv2d(132, 132, kernel_size=(5, 5), stride=(1, 1), padding=(2, 2), groups=132, bias=False)
              (2): Conv2d(132, 132, kernel_size=(1, 1), stride=(1, 1), bias=False)
              (3): BatchNorm2d(132, eps=1e-05, momentum=0.1, affine=True, track_running_stats=True)
            )
          )
        )
        (5<-1): POOLING(
          (op): MaxPool2d(kernel_size=3, stride=1, padding=1, dilation=1, ceil_mode=False)
        )
      )
    )
    (15): NASNetInferCell(
      (preprocess0): ReLUConvBN(
        (op): Sequential(
          (0): ReLU()
          (1): Conv2d(528, 132, kernel_size=(1, 1), stride=(1, 1), bias=False)
          (2): BatchNorm2d(132, eps=1e-05, momentum=0.1, affine=True, track_running_stats=True)
        )
      )
      (preprocess1): ReLUConvBN(
        (op): Sequential(
          (0): ReLU()
          (1): Conv2d(528, 132, kernel_size=(1, 1), stride=(1, 1), bias=False)
          (2): BatchNorm2d(132, eps=1e-05, momentum=0.1, affine=True, track_running_stats=True)
        )
      )
      (edges): ModuleDict(
        (2<-0): DualSepConv(
          (op_a): SepConv(
            (op): Sequential(
              (0): ReLU()
              (1): Conv2d(132, 132, kernel_size=(3, 3), stride=(1, 1), padding=(1, 1), groups=132, bias=False)
              (2): Conv2d(132, 132, kernel_size=(1, 1), stride=(1, 1), bias=False)
              (3): BatchNorm2d(132, eps=1e-05, momentum=0.1, affine=True, track_running_stats=True)
            )
          )
          (op_b): SepConv(
            (op): Sequential(
              (0): ReLU()
              (1): Conv2d(132, 132, kernel_size=(3, 3), stride=(1, 1), padding=(1, 1), groups=132, bias=False)
              (2): Conv2d(132, 132, kernel_size=(1, 1), stride=(1, 1), bias=False)
              (3): BatchNorm2d(132, eps=1e-05, momentum=0.1, affine=True, track_running_stats=True)
            )
          )
        )
        (3<-0): DualSepConv(
          (op_a): SepConv(
            (op): Sequential(
              (0): ReLU()
              (1): Conv2d(132, 132, kernel_size=(3, 3), stride=(1, 1), padding=(1, 1), groups=132, bias=False)
              (2): Conv2d(132, 132, kernel_size=(1, 1), stride=(1, 1), bias=False)
              (3): BatchNorm2d(132, eps=1e-05, momentum=0.1, affine=True, track_running_stats=True)
            )
          )
          (op_b): SepConv(
            (op): Sequential(
              (0): ReLU()
              (1): Conv2d(132, 132, kernel_size=(3, 3), stride=(1, 1), padding=(1, 1), groups=132, bias=False)
              (2): Conv2d(132, 132, kernel_size=(1, 1), stride=(1, 1), bias=False)
              (3): BatchNorm2d(132, eps=1e-05, momentum=0.1, affine=True, track_running_stats=True)
            )
          )
        )
        (4<-1): POOLING(
          (op): MaxPool2d(kernel_size=3, stride=1, padding=1, dilation=1, ceil_mode=False)
        )
        (4<-0): DualSepConv(
          (op_a): SepConv(
            (op): Sequential(
              (0): ReLU()
              (1): Conv2d(132, 132, kernel_size=(5, 5), stride=(1, 1), padding=(2, 2), groups=132, bias=False)
              (2): Conv2d(132, 132, kernel_size=(1, 1), stride=(1, 1), bias=False)
              (3): BatchNorm2d(132, eps=1e-05, momentum=0.1, affine=True, track_running_stats=True)
            )
          )
          (op_b): SepConv(
            (op): Sequential(
              (0): ReLU()
              (1): Conv2d(132, 132, kernel_size=(5, 5), stride=(1, 1), padding=(2, 2), groups=132, bias=False)
              (2): Conv2d(132, 132, kernel_size=(1, 1), stride=(1, 1), bias=False)
              (3): BatchNorm2d(132, eps=1e-05, momentum=0.1, affine=True, track_running_stats=True)
            )
          )
        )
        (5<-0): DualSepConv(
          (op_a): SepConv(
            (op): Sequential(
              (0): ReLU()
              (1): Conv2d(132, 132, kernel_size=(5, 5), stride=(1, 1), padding=(2, 2), groups=132, bias=False)
              (2): Conv2d(132, 132, kernel_size=(1, 1), stride=(1, 1), bias=False)
              (3): BatchNorm2d(132, eps=1e-05, momentum=0.1, affine=True, track_running_stats=True)
            )
          )
          (op_b): SepConv(
            (op): Sequential(
              (0): ReLU()
              (1): Conv2d(132, 132, kernel_size=(5, 5), stride=(1, 1), padding=(2, 2), groups=132, bias=False)
              (2): Conv2d(132, 132, kernel_size=(1, 1), stride=(1, 1), bias=False)
              (3): BatchNorm2d(132, eps=1e-05, momentum=0.1, affine=True, track_running_stats=True)
            )
          )
        )
        (5<-1): POOLING(
          (op): MaxPool2d(kernel_size=3, stride=1, padding=1, dilation=1, ceil_mode=False)
        )
      )
    )
    (16): NASNetInferCell(
      (preprocess0): ReLUConvBN(
        (op): Sequential(
          (0): ReLU()
          (1): Conv2d(528, 132, kernel_size=(1, 1), stride=(1, 1), bias=False)
          (2): BatchNorm2d(132, eps=1e-05, momentum=0.1, affine=True, track_running_stats=True)
        )
      )
      (preprocess1): ReLUConvBN(
        (op): Sequential(
          (0): ReLU()
          (1): Conv2d(528, 132, kernel_size=(1, 1), stride=(1, 1), bias=False)
          (2): BatchNorm2d(132, eps=1e-05, momentum=0.1, affine=True, track_running_stats=True)
        )
      )
      (edges): ModuleDict(
        (2<-0): DualSepConv(
          (op_a): SepConv(
            (op): Sequential(
              (0): ReLU()
              (1): Conv2d(132, 132, kernel_size=(3, 3), stride=(1, 1), padding=(1, 1), groups=132, bias=False)
              (2): Conv2d(132, 132, kernel_size=(1, 1), stride=(1, 1), bias=False)
              (3): BatchNorm2d(132, eps=1e-05, momentum=0.1, affine=True, track_running_stats=True)
            )
          )
          (op_b): SepConv(
            (op): Sequential(
              (0): ReLU()
              (1): Conv2d(132, 132, kernel_size=(3, 3), stride=(1, 1), padding=(1, 1), groups=132, bias=False)
              (2): Conv2d(132, 132, kernel_size=(1, 1), stride=(1, 1), bias=False)
              (3): BatchNorm2d(132, eps=1e-05, momentum=0.1, affine=True, track_running_stats=True)
            )
          )
        )
        (3<-0): DualSepConv(
          (op_a): SepConv(
            (op): Sequential(
              (0): ReLU()
              (1): Conv2d(132, 132, kernel_size=(3, 3), stride=(1, 1), padding=(1, 1), groups=132, bias=False)
              (2): Conv2d(132, 132, kernel_size=(1, 1), stride=(1, 1), bias=False)
              (3): BatchNorm2d(132, eps=1e-05, momentum=0.1, affine=True, track_running_stats=True)
            )
          )
          (op_b): SepConv(
            (op): Sequential(
              (0): ReLU()
              (1): Conv2d(132, 132, kernel_size=(3, 3), stride=(1, 1), padding=(1, 1), groups=132, bias=False)
              (2): Conv2d(132, 132, kernel_size=(1, 1), stride=(1, 1), bias=False)
              (3): BatchNorm2d(132, eps=1e-05, momentum=0.1, affine=True, track_running_stats=True)
            )
          )
        )
        (4<-1): POOLING(
          (op): MaxPool2d(kernel_size=3, stride=1, padding=1, dilation=1, ceil_mode=False)
        )
        (4<-0): DualSepConv(
          (op_a): SepConv(
            (op): Sequential(
              (0): ReLU()
              (1): Conv2d(132, 132, kernel_size=(5, 5), stride=(1, 1), padding=(2, 2), groups=132, bias=False)
              (2): Conv2d(132, 132, kernel_size=(1, 1), stride=(1, 1), bias=False)
              (3): BatchNorm2d(132, eps=1e-05, momentum=0.1, affine=True, track_running_stats=True)
            )
          )
          (op_b): SepConv(
            (op): Sequential(
              (0): ReLU()
              (1): Conv2d(132, 132, kernel_size=(5, 5), stride=(1, 1), padding=(2, 2), groups=132, bias=False)
              (2): Conv2d(132, 132, kernel_size=(1, 1), stride=(1, 1), bias=False)
              (3): BatchNorm2d(132, eps=1e-05, momentum=0.1, affine=True, track_running_stats=True)
            )
          )
        )
        (5<-0): DualSepConv(
          (op_a): SepConv(
            (op): Sequential(
              (0): ReLU()
              (1): Conv2d(132, 132, kernel_size=(5, 5), stride=(1, 1), padding=(2, 2), groups=132, bias=False)
              (2): Conv2d(132, 132, kernel_size=(1, 1), stride=(1, 1), bias=False)
              (3): BatchNorm2d(132, eps=1e-05, momentum=0.1, affine=True, track_running_stats=True)
            )
          )
          (op_b): SepConv(
            (op): Sequential(
              (0): ReLU()
              (1): Conv2d(132, 132, kernel_size=(5, 5), stride=(1, 1), padding=(2, 2), groups=132, bias=False)
              (2): Conv2d(132, 132, kernel_size=(1, 1), stride=(1, 1), bias=False)
              (3): BatchNorm2d(132, eps=1e-05, momentum=0.1, affine=True, track_running_stats=True)
            )
          )
        )
        (5<-1): POOLING(
          (op): MaxPool2d(kernel_size=3, stride=1, padding=1, dilation=1, ceil_mode=False)
        )
      )
    )
    (17): NASNetInferCell(
      (preprocess0): ReLUConvBN(
        (op): Sequential(
          (0): ReLU()
          (1): Conv2d(528, 132, kernel_size=(1, 1), stride=(1, 1), bias=False)
          (2): BatchNorm2d(132, eps=1e-05, momentum=0.1, affine=True, track_running_stats=True)
        )
      )
      (preprocess1): ReLUConvBN(
        (op): Sequential(
          (0): ReLU()
          (1): Conv2d(528, 132, kernel_size=(1, 1), stride=(1, 1), bias=False)
          (2): BatchNorm2d(132, eps=1e-05, momentum=0.1, affine=True, track_running_stats=True)
        )
      )
      (edges): ModuleDict(
        (2<-0): DualSepConv(
          (op_a): SepConv(
            (op): Sequential(
              (0): ReLU()
              (1): Conv2d(132, 132, kernel_size=(3, 3), stride=(1, 1), padding=(1, 1), groups=132, bias=False)
              (2): Conv2d(132, 132, kernel_size=(1, 1), stride=(1, 1), bias=False)
              (3): BatchNorm2d(132, eps=1e-05, momentum=0.1, affine=True, track_running_stats=True)
            )
          )
          (op_b): SepConv(
            (op): Sequential(
              (0): ReLU()
              (1): Conv2d(132, 132, kernel_size=(3, 3), stride=(1, 1), padding=(1, 1), groups=132, bias=False)
              (2): Conv2d(132, 132, kernel_size=(1, 1), stride=(1, 1), bias=False)
              (3): BatchNorm2d(132, eps=1e-05, momentum=0.1, affine=True, track_running_stats=True)
            )
          )
        )
        (3<-0): DualSepConv(
          (op_a): SepConv(
            (op): Sequential(
              (0): ReLU()
              (1): Conv2d(132, 132, kernel_size=(3, 3), stride=(1, 1), padding=(1, 1), groups=132, bias=False)
              (2): Conv2d(132, 132, kernel_size=(1, 1), stride=(1, 1), bias=False)
              (3): BatchNorm2d(132, eps=1e-05, momentum=0.1, affine=True, track_running_stats=True)
            )
          )
          (op_b): SepConv(
            (op): Sequential(
              (0): ReLU()
              (1): Conv2d(132, 132, kernel_size=(3, 3), stride=(1, 1), padding=(1, 1), groups=132, bias=False)
              (2): Conv2d(132, 132, kernel_size=(1, 1), stride=(1, 1), bias=False)
              (3): BatchNorm2d(132, eps=1e-05, momentum=0.1, affine=True, track_running_stats=True)
            )
          )
        )
        (4<-1): POOLING(
          (op): MaxPool2d(kernel_size=3, stride=1, padding=1, dilation=1, ceil_mode=False)
        )
        (4<-0): DualSepConv(
          (op_a): SepConv(
            (op): Sequential(
              (0): ReLU()
              (1): Conv2d(132, 132, kernel_size=(5, 5), stride=(1, 1), padding=(2, 2), groups=132, bias=False)
              (2): Conv2d(132, 132, kernel_size=(1, 1), stride=(1, 1), bias=False)
              (3): BatchNorm2d(132, eps=1e-05, momentum=0.1, affine=True, track_running_stats=True)
            )
          )
          (op_b): SepConv(
            (op): Sequential(
              (0): ReLU()
              (1): Conv2d(132, 132, kernel_size=(5, 5), stride=(1, 1), padding=(2, 2), groups=132, bias=False)
              (2): Conv2d(132, 132, kernel_size=(1, 1), stride=(1, 1), bias=False)
              (3): BatchNorm2d(132, eps=1e-05, momentum=0.1, affine=True, track_running_stats=True)
            )
          )
        )
        (5<-0): DualSepConv(
          (op_a): SepConv(
            (op): Sequential(
              (0): ReLU()
              (1): Conv2d(132, 132, kernel_size=(5, 5), stride=(1, 1), padding=(2, 2), groups=132, bias=False)
              (2): Conv2d(132, 132, kernel_size=(1, 1), stride=(1, 1), bias=False)
              (3): BatchNorm2d(132, eps=1e-05, momentum=0.1, affine=True, track_running_stats=True)
            )
          )
          (op_b): SepConv(
            (op): Sequential(
              (0): ReLU()
              (1): Conv2d(132, 132, kernel_size=(5, 5), stride=(1, 1), padding=(2, 2), groups=132, bias=False)
              (2): Conv2d(132, 132, kernel_size=(1, 1), stride=(1, 1), bias=False)
              (3): BatchNorm2d(132, eps=1e-05, momentum=0.1, affine=True, track_running_stats=True)
            )
          )
        )
        (5<-1): POOLING(
          (op): MaxPool2d(kernel_size=3, stride=1, padding=1, dilation=1, ceil_mode=False)
        )
      )
    )
  )
  (auxiliary_head): AuxiliaryHeadCIFAR(
    (features): Sequential(
      (0): ReLU(inplace=True)
      (1): AvgPool2d(kernel_size=5, stride=3, padding=0)
      (2): Conv2d(528, 128, kernel_size=(1, 1), stride=(1, 1), bias=False)
      (3): BatchNorm2d(128, eps=1e-05, momentum=0.1, affine=True, track_running_stats=True)
      (4): ReLU(inplace=True)
      (5): Conv2d(128, 768, kernel_size=(2, 2), stride=(1, 1), bias=False)
      (6): BatchNorm2d(768, eps=1e-05, momentum=0.1, affine=True, track_running_stats=True)
      (7): ReLU(inplace=True)
    )
    (classifier): Linear(in_features=768, out_features=10, bias=True)
  )
  (lastact): Sequential(
    (0): BatchNorm2d(528, eps=1e-05, momentum=0.1, affine=True, track_running_stats=True)
    (1): ReLU(inplace=True)
  )
  (global_pooling): AdaptiveAvgPool2d(output_size=1)
  (classifier): Linear(in_features=528, out_features=10, bias=True)
)
model information : NASNetonCIFAR(C=33, N=6, L=18)
 00/18 :: 
 01/18 :: 
 02/18 :: 
 03/18 :: 
 04/18 :: 
 05/18 :: 
 06/18 :: 
 07/18 :: 
 08/18 :: 
 09/18 :: 
 10/18 :: 
 11/18 :: 
 12/18 :: 
 13/18 :: 
 14/18 :: 
 15/18 :: 
 16/18 :: 
 17/18 :: 
--------------------------------------------------
Params=2.52 MB, FLOPs=489.96 M ... = 0.49 G
--------------------------------------------------
…
